face_decide/param/p_net.pth (torch_old, 29688 bytes, 9 tensors)

p_layer.0.weight f4 [10, 3, 3, 3]
00000000: dce8 febe d904 c7be 9308 d6be 1a01 19bf
00000010: 88ec c3be 6a64 933f abec e5be 73c0 673f
00000020: e819 d33e 075d 023f 2341 45bf 962f e4be
00000030: b90e 8abe c3e0 53bf 1a17 633f e61a 8cbe
00000040: 67fa 493f 2491 313e 007f 003f a86e 2ebf
00000050: 8ba2 3fbf d11a c8be 876f afbe 6c1a 263f
00000060: 23b8 d63e d1b5 273f c1f3 223e 3974 0e3f
00000070: d4f9 3a3d e604 02bf c3ed bcbe d4ce 083d
00000080: 1920 403f eeee e1be e3ec b0bc 8e8f 85be
00000090: aa54 753e c209 553f 9b7a 27bf fa94 99be
000000a0: 4e4e 5f3f 645b 793f cb75 64bf 070f 52bf
000000b0: c832 4dbe 14f5 023f 56d9 883f 2167 debe
000000c0: 85e3 00bf 31d2 de3e cd67 573f 3898 7ebf
000000d0: 355f dabe 1189 e0be 8e2d 003f f84f 673f
000000e0: 5929 2e3f 0607 8dbb c30f d63c 5cc3 3fbf
000000f0: f097 ddbe 3ae6 19bf f3ef 66be 2b2e 0b3f
00000100: 93fa 713f f90a 093f 9ee1 de3e a0b7 0fbf
00000110: dcc7 6fbf 0475 99be 9eaa eabe 4425 4abf
00000120: cfbd 313f 6d7e 403f e373 bf3e ac27 c43d
00000130: 2222 ffbd af58 0dbf 4afa 593c 1af2 b0be
00000140: a900 48be 3d84 cc3f 4d61 8cbd 3331 a2bf
00000150: c7ec d4be 4a9f 33bf 75bd 573f e808 263d
00000160: 47fd 07bf 5f73 dcbe c1ed 503f ffb6 4b3d
00000170: 2991 25bf 4c24 71be a3ba 62be 26fc 453f
00000180: 9a48 9e3e 9a92 37bd c1fa 213f cf9b 833f
00000190: be1b 49be ec28 f9be 5584 54bf 8e59 e7be
000001a0: f05a 903e 5a2f 3ebf 8964 533d c358 a2be
000001b0: 0054 d93e d06f bdbe 7fc5 07bf 7772 923d
000001c0: 9ad8 03be e545 a0be c341 153f 8b8d 883f
000001d0: ecc9 b2be 057b 433f 4696 13bf 3478 da3d
000001e0: d818 e73e 7869 86be 6321 3ebf 3196 733e
000001f0: 8849 8cbe 4b58 35bf c1b4 e43e e4e3 aebe
00000200: ae30 d93d 6c04 913e e5ab ad3e f41a 2cbf
00000210: 85b9 313f 6835 263c 09ab f8be 0156 4ebf
00000220: d4bf 373f d044 6dbe e43c ccbd 0318 123f
00000230: c99d 3cbe 5c31 95be 93d1 263f ba2a 8cbe
00000240: 1918 51bf 1cdf 583f 42f9 84be 5aa3 ecbe
00000250: 0fd6 8b3f 7a23 a7be ef1e 09bf f526 953f
00000260: c3f8 50bf 25c7 0ebf c42c 103f 0eca 1a3e
00000270: 0cdd 01bf 6ec6 253f 6347 0bbe 3085 78be
00000280: 05f9 193f 2e36 18bf 7ddc fcbe 096d 71bf
00000290: bc2b a6be 912f 1f3f daba 233f 54cc 6c3d
000002a0: 0021 e53c 2fa8 a03e 1be6 bebd 06dd 76be
000002b0: 25d5 57bf 2e2a 1bbf 1777 a33f 254d 903e
000002c0: be97 433d a17b 8abd efb6 353f 7a15 873e
000002d0: 5aee 3cbf dbbf 9bbf 1ceb 54bf 5824 283f
000002e0: 73af 963d ba5e a23e 9757 823e 5f67 e13e
000002f0: 3dd0 b33d 2cb5 643c 08dc 19bf 98ad 193f
00000300: 39f7 ecbd 0587 443e 7a68 c0bd ef47 8bbd
00000310: 090d bb3c c833 3a3f 6eb3 7cbf f9a3 69bf
00000320: 614d edbd 7af9 fabd 6190 52bf 1e2b 8bbf
00000330: 8d4b 41be d83d 9bbe 2a05 0bbf f799 f4be
00000340: f927 bcbd 3015 1c3f 9562 ad3e 75c5 ef3d
00000350: cf07 11bf d4b5 403e 10f6 a63d c7b2 b43e
00000360: f653 f13e 9676 8d3e 2f7a 1e3e 61f5 f1be
00000370: 6012 2fbf ae4c fbbe 3577 2f3f f847 1e3f
00000380: c102 8c3e a6e4 483e ee4c febe 8732 95bd
00000390: d2d4 e8bf 4deb 68bf d512 0dbf 2e52 0b3f
000003a0: 1270 683f 7a05 e83e c143 553f 0aed d13e
000003b0: 2bde da3e 902d 84bf 6d54 1abf 4967 08bf
000003c0: 8f94 053f b6d6 a93e abba b83e e55d d0be
000003d0: 511a d7be 01c2 57bf f54b 20bf d8e4 46bf
000003e0: 6fe5 62bf a553 5a3e b60e 77bf 4fcf 6fbf
000003f0: 87c8 d4bd 5a34 5b3e 8a5f 2f3f 4b59 663f
-0.49787033 -0.38870886 -0.41803417 -0.59767306 -0.38266397 1.1515019 -0.44907126 0.9052803
0.41230702 0.509232 -0.77052516 -0.44567555 -0.26964357 -0.82764834 0.88707125 -0.27364272
0.7889771 0.17340523 0.50193787 -0.681376 -0.74857396 -0.3908296 -0.34264776 0.64884067
0.4193736 0.65511805 0.15913297 0.5564609 0.04564841 -0.50788724 -0.36900148 0.03340037
0.7504898 -0.441276 -0.021597331 -0.26086086 0.23958078 0.83218014 -0.65421456 -0.29996473
0.8722886 0.97405076 -0.8924224 -0.8205418 -0.20038903 0.5115521 1.0691326 -0.43438056
-0.5034717 0.43519738 0.8414276 -0.9945102 -0.42650762 -0.43854573 0.5006951 0.903564
0.6803184 -0.004303816 0.026130563 -0.7490747 -0.43279982 -0.6011692 -0.22552471 0.5436732
0.9452297 0.5353237 0.43531507 -0.56139565 -0.93664336 -0.29972088 -0.45833296 -0.7896311
0.6943025 0.7519291 0.37393102 0.09577879 -0.12457682 -0.55213445 0.0133043025 -0.3455971
-0.19531502 1.5977856 -0.06854496 -1.2671264 -0.41586897 -0.7016493 0.84273463 0.040535837
-0.53120846 -0.4305677 0.81612784 0.049735066 -0.6467462 -0.23549002 -0.22141509 0.77337873
0.30914766 -0.044817545 0.63273245 1.0281924 -0.19639489 -0.48664033 -0.8301442 -0.45185512
0.2819438 -0.74291 0.05160955 -0.31708345 0.424469 -0.3699937 -0.5303573 0.07150739
-0.12875596 -0.31303325 0.5830347 1.0668195 -0.3491968 0.7635959 -0.57651174 0.10667458
0.45136142 -0.2625234 -0.74269694 0.23787762 -0.2739985 -0.7083785 0.44669154 -0.34158242
0.10604988 0.28323686 0.33920208 -0.6722863 0.69423705 0.010144569 -0.4856799 -0.8059998
0.7177708 -0.23170781 -0.099725515 0.5706789 -0.18419565 -0.2913922 0.65163535 -0.27376348
-0.81677395 0.8471544 -0.2597142 -0.46218377 1.09247 -0.32644254 -0.53562826 1.1652514
-0.8162958 -0.5577262 0.56318307 0.1511614 -0.50727916 0.64755905 -0.1360145 -0.24269557
0.601456 -0.5945767 -0.4938697 -0.94307 -0.32455242 0.62181956 0.6395699 0.05781205
0.027969837 0.31378314 -0.09321233 -0.24107751 -0.8430961 -0.60611236 1.2770718 0.28183857
0.047752135 -0.067618616 0.7098226 0.26383573 -0.73801196 -1.2167925 -0.8317125 0.65680456
0.07357683 0.31712896 0.2545745 0.44024178 0.08779953 0.01395921 -0.60101366 0.6003051
-0.115705915 0.19192131 -0.09394927 -0.068008296 0.022833364 0.7273526 -0.9871129 -0.9126583
-0.115870245 -0.12254615 -0.82251555 -1.0872533 -0.18876477 -0.3032062 -0.54304755 -0.47773716
-0.09187312 0.6096983 0.33864275 0.11707584 -0.5665254 0.18819362 0.081524014 0.35292646
0.4713437 0.27629536 0.15476297 -0.47257522 -0.68387413 -0.4908194 0.6854127 0.61828566
0.2734585 0.19618472 -0.49668068 -0.07285028 -1.8189948 -0.9098404 -0.5510686 0.5442227
0.90796006 0.45316678 0.8330651 0.4100116 0.42747626 -1.0326405 -0.60285074 -0.532826
0.5217981 0.33171624 0.36079916 -0.40696636 -0.42012265 -0.842804 -0.626159 -0.7769294
-0.8863134 0.2132097 -0.9650682 -0.936757 -0.1038981 0.2140669 0.68505156 0.8998

p_layer.0.bias f4 [10]
00000000: d9fa 05be 1893 23be a905 1abe cc0e ecbe
00000010: 090b 75be dc87 11be 42f5 2dbe 5870 66bf
00000020: 0ae2 24be 7b71 463f
-0.13083972 -0.1597408 -0.15041222 -0.4610504 -0.23929991 -0.14211982 -0.1698809 -0.9001517
-0.16101852 0.7751691

p_layer.3.weight f4 [16, 10, 3, 3]
00000000: 7f0b 64bf a93e 983e 4274 313f 2c8c 8fbe
00000010: 6029 a13e acd3 0a3f 5752 dd3e 241f 5ebf
00000020: 4e50 d03d b6e1 f23e cd22 b6bf 214b 3dbf
00000030: 7935 2c3f 89ce 81bf fc2a d53e 078b cd3e
00000040: 5923 173e a461 ffbe 1319 57bd c0f9 c03e
00000050: 99e6 aabd 945c e93e e6e9 3c3f f3c6 ee3c
00000060: 7ae1 a1be 5118 46bf ee92 cabe ef6a 693e
00000070: 8020 9d3f cf57 b93f ca36 e3be 2e02 8cbe
00000080: cbf6 193e dd04 d73e 5843 2ebf c0b7 aa3c
00000090: a896 753e a188 923e 4036 20be df2d 0bbf
000000a0: 124a c23d 0582 1a3f d514 023f a149 8f3e
000000b0: e31f 3ebe b700 5fbd 72f1 ffbb 4d12 183f
000000c0: c849 0d3f 1adb 82be b07d 303e 2c1e 8fbe
000000d0: 4167 19bf 762a b2be 1cec 3bbf 698d 65bf
000000e0: 0ee7 03c0 5bb2 903e e9a6 59bf 6bf0 bbbe
000000f0: ff81 8dbf 375a a43e 1be3 853f da7c 413e
00000100: 064a 25bf 10e1 043f 6269 263e a669 86bf
00000110: 53cd e63e 962a 11bb 4355 0fbf 4375 9dbe
00000120: 05bd 013c 4022 f03c a14e 81bd 9969 663e
00000130: e4ed b03e 6e7d eabd 474b 81bf 69b4 153e
00000140: 1e89 d9be 0d10 09c0 6c32 90bf 68a2 553e
00000150: 6d18 213d 980d e5be 4254 983e 92df 0c3e
00000160: feb9 b43e 6984 983e 398f d2be adc1 f63d
00000170: 2492 963e 6bde 6fbe acc1 45bf c175 4dbe
00000180: 6b14 01c0 aa5c 09be 3248 10be 0578 59be
00000190: 63d5 023e c5c1 d3bd 34c1 a4bd fa02 86be
000001a0: 7321 1c3d c583 babe 44bb cc3c b1e5 69be
000001b0: ccee a1bf f0ef 1a3f 2476 ed3e 9149 343e
000001c0: a5d3 6a3f ea17 fd3e 7c2e 4d3a a36a 93bf
000001d0: 4b2d b2be bc96 c33f c46c 8dbd ae41 e03d
000001e0: 8626 303f 9ca9 c73e 3eb4 c33e 9c7c 7ebf
000001f0: 4da3 1f3e 5ff0 18bf 7381 b5be fa2a 493d
00000200: ab15 0ebf 4d5a a33e 474b 7d3f e9ed ee3d
00000210: bd5d 32bf fd4c adbd 9116 ba3e e578 b63d
00000220: 2155 cfbe 5333 ad3e 9620 833f 1904 d43d
00000230: 4264 953e 3894 ac3e cbca 103f 971b 313f
00000240: 2801 85be fa43 c7bd 3251 033f 703d 903d
00000250: 8132 2a3e 8ae3 943e 4a49 b8bf 021b 78bf
00000260: fcea c4bf 6550 c03c c39f ae3e 0ee7 b6be
00000270: 73e8 4e3d e46b e13e 93e8 123f f90c 71bd
00000280: c4d5 d43e 4702 27bf 8481 25bf b26b 1f3e
00000290: 92be 9c3e 1db9 e4bf fa34 f1be e5b3 0c3f
000002a0: dfd6 53be 99bf 99bf 4adb 44bf 9063 383e
000002b0: a756 923e 5bbc 273e 15fd b73e 3d4a 76bd
000002c0: 9117 b03e 687d 833f 851f 84bd cb3f 5f3d
000002d0: fabe 403e f1c7 173e b372 55be 934f 0b3d
000002e0: ea8a 17be b73c f43e 12d4 dfbe 3802 81bd
000002f0: 4e4b 0e3f de01 093e 247f 33be 1b89 31bf
00000300: ad1c 30bf b331 c5be 43c0 5fbb 50d0 0c3f
00000310: 4dca 43be 3411 4f3f 5f82 6ebe 9b5d a3ba
00000320: 544a 653f 382e 753e 80aa b2be 4638 0bbf
00000330: d5b4 15bf 4f69 1ebf ae71 883e 59b7 16bf
00000340: 617c 80bf 6eb3 86be 2831 2dbe b1ac 9bbf
00000350: 21bd c9bf 5701 b4be 9771 00bd 41a1 4e3e
00000360: eaff 22bf be32 79bf d867 0cbf e95c 11bf
00000370: e58f 20bf f4d2 a0be ff4f d13e 4878 5a3e
00000380: 0cc0 263e af93 77be e92b 983e a85a 2fbf
00000390: 59f7 d9be 97b9 4f3e 43f0 c0bd 9f9c 913e
000003a0: 7a80 07be 1bd7 963e e37a a3bd ea70 3e3e
000003b0: c5ae 39bf abb1 d93c 089f 11bf 028b 7d3f
000003c0: 4ab1 053f 76b3 6dbe 674c 9c3d a0f7 423e
000003d0: 4581 46bf 4117 25be 7091 113e 08f7 953d
000003e0: dacf 23bc 6110 303f a1f8 e43e 19e3 dabe
000003f0: 0cd1 11be 9c0a 01bf af8e 083f 8b2f 693e
-0.8908004 0.29735306 0.6931802 -0.2803663 0.3147688 0.54229236 0.43226883 -0.86766267
0.10171567 0.4743783 -1.422937 -0.7394276 0.6726909 -1.0141155 0.41634357 0.40145132
0.14759578 -0.4987918 -0.052514147 0.37690544 -0.08344764 0.45578444 0.737944 0.0291476
-0.31617337 -0.77380854 -0.39565223 0.22794698 1.2275543 1.4479922 -0.44377738 -0.27345413
0.1503555 0.41995898 -0.6807151 0.020839572 0.23983252 0.28619865 -0.15645695 -0.5436687
0.09486784 0.60354644 0.5081304 0.27985862 -0.18566851 -0.05444404 -0.007810765 0.59402925
0.55190706 -0.25557786 0.17235446 -0.27952707 -0.5992318 -0.3479802 -0.7340715 -0.896689
-2.0609775 0.28261074 -0.8502031 -0.36706862 -1.1055297 0.32100078 1.0459932 0.18895283
-0.64566076 0.5190592 0.16251138 -1.0500991 0.45078525 -0.0022150627 -0.55989474 -0.30753526
0.007918601 0.029313207 -0.063138254 0.2250122 0.34556496 -0.11449705 -1.0101098 0.14619602
-0.42487425 -2.1416047 -1.1265388 0.20862734 0.039329935 -0.44736934 0.29751784 0.1375716
0.3529815 0.2978852 -0.41124895 0.120486595 0.2940837 -0.2342469 -0.77248645 -0.20064451
-2.0168712 -0.13414255 -0.1409004 -0.2123719 0.12776713 -0.10339693 -0.08044663 -0.26174146
0.038117837 -0.36428657 0.024991639 -0.22841527 -1.2651 0.60522366 0.46379197 0.17606188
0.91729194 0.49432307 0.0007827056 -1.1516918 -0.3480018 1.5280375 -0.06905511 0.109500274
0.6880878 0.3899659 0.3822345 -0.9940889 0.15589638 -0.5974178 -0.35450324 0.04911325
-0.5550181 0.31904832 0.9894299 0.116664715 -0.69674283 -0.0846195 0.36345342 0.089097776
-0.40494636 0.3382822 1.024432 0.10352344 0.29178053 0.33706832 0.5655944 0.69182724
-0.25977445 -0.097297624 0.5129577 0.07042968 0.16620828 0.2907985 -1.4397366 -0.9691621
-1.5384212 0.023475835 0.34106264 -0.35723156 0.05051465 0.44027627 0.5738613 -0.058850262
0.4156934 -0.6523785 -0.6465075 0.15568426 0.30614144 -1.7868992 -0.4711073 0.54962
-0.20687436 -1.2011596 -0.7689711 0.1800673 0.28581735 0.16380446 0.35935274 -0.060129393
0.3439298 1.0272646 -0.064513244 0.054504197 0.18822852 0.14822365 -0.20844536 0.034011435
-0.14799085 0.47702572 -0.43716484 -0.06299251 0.55583656 0.13379619 -0.17528969 -0.6934983
-0.68793756 -0.3851448 -0.0034141697 0.5500536 -0.1912014 0.80885625 -0.2329192 -0.001246381
0.8956654 0.23943412 -0.34895706 -0.5438274 -0.5847905 -0.6187944 0.2664923 -0.58873516
-1.0037957 -0.2630877 -0.16913283 -1.2162076 -1.5760843 -0.35157272 -0.031358328 0.20178701
-0.63671744 -0.9734305 -0.54845953 -0.56782395 -0.62719566 -0.31410944 0.40881345 0.21334946
0.16284198 -0.2417743 0.29721 -0.68497705 -0.42571524 0.2028564 -0.09420826 0.28439805
-0.13232604 0.29460987 -0.07982423 0.18597761 -0.725323 0.026573977 -0.5688329 0.99040234
0.52223647 -0.2321299 0.0763176 0.19039774 -0.77541 -0.16122152 0.14215636 0.07322508
-0.009998286 0.6877499 0.4472094 -0.42751387 -0.14239901 -0.50406814 0.5334272 0.22772042

p_layer.3.bias f4 [16]
00000000: 34f9 27be add8 17bf bdbd 503f 33b5 333f
00000010: 9ea4 1d3f a95c 663e bab4 893d a401 273f
00000020: 7494 31be 77e8 f13d c4ae b8bd b1ea 6e3f
00000030: 151d 2ebe 5424 e53e ab20 b53e c569 a63e
-0.16403657 -0.59314996 0.8153952 0.70198363 0.6157931 0.22496285 0.06723924 0.6523688
-0.17341787 0.11811917 -0.09017709 0.9332686 -0.17003281 0.4475428 0.35376486 0.3250257

p_layer.5.weight f4 [32, 16, 3, 3]
00000000: dffa a13e 20f0 59be 825f 3fbe d33b 123f
00000010: f002 b93f 7211 5ebe d7f8 643e 4b73 373e
00000020: 0075 10bf 2d06 c9bd c3d6 bc3c d86d db3f
00000030: 1176 96be 9366 153d 7288 e93e c541 03be
00000040: 16a3 343d dad5 973f 1db4 1d3f 27e7 533d
00000050: a0a1 cebe 15e3 c03d 05ea f2be 3ef3 69be
00000060: d302 c93e 7a2d 0a3f 2e76 0f3f 525d 28bf
00000070: 78a7 0b3f ce8a ff3e 0679 c63e ccce b3be
00000080: 3501 543d 8c89 c1bd 5bda 643f cc1d 8d3e
00000090: 663b 843d c26f ddbc 0205 553e 1a0b 893e
000000a0: 84ff 2abd 80c9 a8bd 0a6d 073f 5129 8ebf
000000b0: 637a fcbe e6eb 0c3f b7e1 303e 1bad 9a3f
000000c0: 86ed 783e 8686 0ebf 15f7 52bf 2761 ddbd
000000d0: 3623 4dbf 2611 8bbe 9f6f 2fbf 547a ae3e
000000e0: bc99 8d3f 24fe 853d de54 88be 34b4 8a3e
000000f0: d103 25bf cfc9 f93e 24a2 293f 9b3f 833e
00000100: 01b4 46bf cf95 1d3e 1e3b 9b3d 4d09 64be
00000110: 6d20 33bf 9416 133e 5e14 d1be 3bf4 83be
00000120: 13a9 e3be 7cb7 ea3c df92 10bf a4c4 cdbc
00000130: 2e62 b23e c7c6 503f d779 083f bf37 2f3f
00000140: ed3f ce3e 9120 5a3f ae86 8fbf 83e0 71bf
00000150: 3887 dcbf 13bf a13e 87f0 363f 82f6 7d3c
00000160: 7552 94be 7c55 49bd 2eb6 0d3f 7830 b0be
00000170: b27a 5b3e 14ea e33e 0f01 bebd 582a a13e
00000180: 4130 f83e 9a3f 5e3e b3ee 7ebe 8525 5cbf
00000190: ae93 dfbe 1885 b4bf eda1 903e 420a ebbe
000001a0: c290 e03d a992 5f3f 7a8a 18be bdf0 c33e
000001b0: 920d 0cbf f5b5 1a3f 8ddb a13e a769 80bf
000001c0: ac84 f83e 0c6d 1bbf 9ce5 023f 5647 23be
000001d0: 2185 6b3f 8861 443f a286 2f3e fb40 c1be
000001e0: 9b3c e83e 1114 493d 00e6 733f 1d6e a53d
000001f0: adf1 533f 9ccd 53be e983 a1be 3eac 0abf
00000200: 38cf 29bc 0d12 a73e 967e 603f 4685 913e
00000210: df16 18bf 6c1e 18be 2455 0c3e 2ff1 47bd
00000220: eaee 43be ad19 e8bd 1d06 3fbe 7ac1 12bf
00000230: 8b31 9a3e bcf8 733f 1a6b 0c3f 883d 4b3f
00000240: fed0 ca3d 1511 c6bd 44e3 6f3c 124e 68ba
00000250: 720c 933d c2df 9cbb 1fb6 473e e442 4b3e
00000260: d80c e93d 0f88 f2bd 2e66 8cbc 95ba c0bd
00000270: 28d5 313e 9020 553d 2fff 6abc 6e2e cdbd
00000280: a36a 3bbd 5735 9fbd 86ea 89bd e84a d3bc
00000290: 4c1d de3c c8e9 9a3d 0acb 643d 7c6b 2fbd
000002a0: 6a00 cf3b d1fa 993d 6c70 e4bc 8ddc 76be
000002b0: 1065 de3a fc65 9d3c 6acb c6bd 8d54 8a3d
000002c0: d4dc 6ebd 948c 37be 112d 2fbe f768 c4bd
000002d0: 447b 4bbd f7ed e73d 7337 073e 829e 643c
000002e0: 62d6 c03c 7903 e63d b4e7 a8bd cf47 ecbd
000002f0: 9251 043d 5d6e bc3c 074a 28be 37fe 83be
00000300: 6929 573e 13a5 7b3d c3f7 8abd 1381 d13c
00000310: b503 cc3b 83e2 86bd 9c4e e0bd 2599 06be
00000320: 7a55 a0ba 2dff 283d baf7 3d3d 5123 d3bd
00000330: ffc1 d9bd 5c2d 95bd ee01 8bbb 57cb 07bd
00000340: 1abf ca3d aa88 d83d fa11 f1bd c3e1 6d3d
00000350: 798c a03d caa6 3ebe 9268 18be 6fd6 70bd
00000360: 9e13 243d 1a85 89bd a28a 06be 97b2 223e
00000370: 3b78 233e 8ae3 3dbb d858 fc3d 083d 823e
00000380: 9a0f 043e 008b 53be ccb0 02be 7250 54be
00000390: 8203 ecba 1425 cf3c 6071 303d 09d2 d03d
000003a0: 3666 0d3e c7d2 683c f3bd 67bd d63c 933d
000003b0: f77d ba3d 4b6c b2bd 22fd 853d 547c 6cbd
000003c0: 1bfd 90bd 6cfb 883d e718 0d3d ed7b 623d
000003d0: dbde edbd abb8 50be aefa 4e3d 52d4 1e3e
000003e0: f5d0 233e 5b0f 2fbc 182d ea3d 35a1 fa3c
000003f0: 92a8 9ebe fa6b 77be 4e04 e9bd d771 023e
0.31636712 -0.21283007 -0.18688777 0.57122535 1.4454021 -0.21686342 0.2236055 0.17915075
-0.5642853 -0.09815631 0.023051625 1.7142897 -0.29386953 0.036474776 0.45611912 -0.12818058
0.044100843 1.1862137 0.61602956 0.051734116 -0.40357685 0.094183125 -0.47444168 -0.22846696
0.39259967 0.5397564 0.560397 -0.65767395 0.5455241 0.49910587 0.3876421 -0.3511871
0.051758964 -0.09450063 0.89395684 0.27561796 0.06456642 -0.02703083 0.20802692 0.26766282
-0.041747585 -0.08241558 0.52900755 -1.1106359 -0.49312124 0.5504745 0.17273603 1.2084078
0.24309358 -0.55674016 -0.8240827 -0.10809546 -0.8013185 -0.2716152 -0.68529695 0.34077704
1.1062541 0.06542614 -0.2662725 0.2709061 -0.6445895 0.4878678 0.6626303 0.25634465
-0.77618414 0.15389179 0.07579635 -0.22269173 -0.6997135 0.14364082 -0.4083585 -0.2577227
-0.4446493 0.028651945 -0.5647411 -0.02511818 0.3484053 0.8155331 0.5331091 0.68444437
0.40283147 0.8520594 -1.1212976 -0.944832 -1.7228765 0.3159109 0.71460766 0.015500667
-0.2896916 -0.04915379 0.5535611 -0.3441198 0.21433523 0.44514525 -0.09277546 0.31477618
0.48474315 0.2170395 -0.24895744 -0.8599475 -0.43667358 -1.4103117 0.2824854 -0.45906264
0.1096511 0.8733316 -0.14896575 0.38269606 -0.54708207 0.60433894 0.31612816 -1.0032243
0.4853872 -0.6071327 0.51131606 -0.15945181 0.92000014 0.7671132 0.17141202 -0.3774489
0.45358738 0.049091402 0.9527283 0.08077643 0.8279064 -0.20683903 -0.31545952 -0.5416907
-0.010364346 0.3263096 0.87693155 0.28421992 -0.594099 -0.14855355 0.13704354 -0.048813995
-0.19134107 -0.11333022 -0.18654676 -0.5732647 0.30115923 0.95301414 0.54850924 0.79390764
0.09903143 -0.09671227 0.014641587 -0.0008861731 0.07180108 -0.004787416 0.19503067 0.19849735
0.11379403 -0.11842357 -0.017138567 -0.09410588 0.17366469 0.052033007 -0.014343067 -0.100186214
-0.045755994 -0.07773846 -0.06734185 -0.025792554 0.02711358 0.075641215 0.055857696 -0.042827114
0.006317188 0.075185426 -0.027885638 -0.24107571 0.0016967375 0.019213669 -0.09706767 0.06754408
-0.058316067 -0.1792472 -0.17107035 -0.09590333 -0.049678102 0.11324685 0.13204746 0.013953807
0.023539726 0.11231131 -0.08247319 -0.11537134 0.032304354 0.023001844 -0.16434489 -0.25779888
0.2101189 0.061436724 -0.06785538 0.025574243 0.006226028 -0.065861724 -0.109524935 -0.13144358
-0.0012232505 0.04125898 0.04637883 -0.103094704 -0.10632705 -0.07284042 -0.0042421734 -0.033152904
0.09899731 0.105729416 -0.11771007 0.05807663 0.07839293 -0.18618312 -0.1488364 -0.05879825
0.04005777 -0.0671484 -0.13138822 0.15888439 0.15963833 -0.0028974735 0.12321633 0.25437188
0.12896577 -0.20658493 -0.12762755 -0.20733812 -0.0018006417 0.025286235 0.043076873 0.10196311
0.13808522 0.0142104095 -0.056577634 0.07189338 0.09106057 -0.087120615 0.06542422 -0.057735756
-0.07079526 0.0668858 0.034447577 0.055293966 -0.11614772 -0.20382945 0.050532036 0.15510681
0.1599768 -0.010684813 0.11434382 0.030594448 -0.30987984 -0.24162284 -0.11377774 0.12738739

p_layer.5.bias f4 [32]
00000000: 5408 873f 4ad3 08c0 8920 6d3e c57e 293b
00000010: 8e0f 083f 22a5 c5be 9a1a 713f 72d0 5fbe
00000020: c028 8b3f ee9d 0040 6c7d 60be 9801 abbc
00000030: 26ef 213f eb40 2d3f a8ad 94be 4d2e 0740
00000040: dbb7 00c0 33be 2c3f 1aa2 d0be 2cd9 183e
00000050: c43d 7fbf ec39 8ebe 7e65 9cbf e2eb 4d3f
00000060: 2eeb 9e3f 1412 703f 9205 5a3f 21de 60bf
00000070: 1d57 293e 6110 cdbe e2b9 fbbc bbe0 13c0
1.0549417 -2.137896 0.23156942 0.0025862914 0.53148735 -0.3860255 0.94181216 -0.2185686
1.0871811 2.0096393 -0.21922845 -0.020874783 0.63255537 0.6767718 -0.2903874 2.112201
-2.0112216 0.6747772 -0.40748674 0.14926594 -0.9970362 -0.27778566 -1.2218473 0.80438054
1.2415521 0.93777585 0.8516475 -0.8783894 0.16537137 -0.4005156 -0.030728284 -2.3105915

conv1.weight f4 [1, 32, 1, 1]
00000000: 8db7 b4bf 2baa 163c 805b a3bf b11c bf3f
00000010: aa9a 9cbf 1c12 e33f f2bf c93f c002 c0bf
00000020: 307e a1bf 6009 9ebf cae0 afbf 5f4c bcbf
00000030: 3446 b1bf d9cb 683f b04a 8cbf a158 923f
00000040: f3e5 473b f471 99bf eab2 c0bf e53f c63f
00000050: 865a d23f 928c db3f 3a47 c9bf f456 b83f
00000060: 73ab aabf c15d a8bf 0ca4 7b3f e31b bd3f
00000070: 562b c0bf 4b99 b73f 4c5f c8bf 3442 a4bf
-1.4118515 0.009195845 -1.2762299 1.4930631 -1.22347 1.7739902 1.5761702 -1.5000839
-1.2616634 -1.2346611 -1.3740475 -1.4710807 -1.3849549 0.90936047 -1.0960293 1.1433297
0.003050205 -1.1987901 -1.50546 1.5488249 1.6433876 1.7152274 -1.5724862 1.4401536
-1.3333572 -1.3153611 0.9829719 1.4774135 -1.5013225 1.4343656 -1.5654082 -1.2832704

conv2.weight f4 [14, 32, 1, 1]
00000000: ed1f 6fba 4879 fdbc 7cc0 bcba bc8a 2039
00000010: bcee af3a ed3d 8d39 17bd 933a 4331 97ba
00000020: 47f9 243b bd6f 12bb b860 c9ba beb2 de39
00000030: 6f8a f8ba fd8e ae3c 1296 d339 ad14 023c
00000040: 01c0 47bd 3083 3a3a 1872 093b e8b0 e4b9
00000050: 662d 6db9 56a7 9239 f75d 6eba 328c ecb8
00000060: 91be 5939 cb38 1bba ed7b aabc 6f4c 5438
00000070: 1112 27ba 0324 bc3a 10b8 93b7 b39a 8239
00000080: 9b08 18ba 45e9 e13c eb61 afba 88e0 01ba
00000090: 6733 0e3a bce1 583a b6ec a93a e683 b0b9
000000a0: 8fa9 ff3a 13b1 c43a 6a15 e7ba 4c49 903a
000000b0: d5b0 3dba 936b ae3a 46d8 0eba 5616 463a
000000c0: aaf0 c8bd f084 5239 7c01 8c3a 3cfb 12bb
000000d0: cab3 b6b9 05cb 383b f6ac e6ba 0e2c 94ba
000000e0: ef7b 00ba 4f75 c0bb df1d 82b9 f4b5 283b
000000f0: 4925 853b b0fe bcba 42e5 b1ba 0aa0 f3ba
00000100: 9daa 8fb9 51fb 643c c8c7 c137 8a46 58b9
00000110: 5a3f 2d3a 0c61 8aba ae92 97ba 89dd fc3a
00000120: e619 073b 11be 53bb 17c5 3ab8 527e d23a
00000130: d874 ad3a 3315 c63c c022 873a fbd6 d03b
00000140: 1189 983c f53d 0639 d4f6 be39 f689 8c3a
00000150: b7d4 00ba 6f79 5bbb 8fda 013a f092 cfb9
00000160: a087 37b9 d4bf cf39 3756 cbbc e1b9 edba
00000170: 58a4 5539 be25 80b9 e34a 1e3a 4d4e a33a
00000180: 4dea 9b39 3c2d b53d b917 723a 12a5 b0ba
00000190: f90a c5b9 e741 54ba 04fb e3ba 6fe4 763b
000001a0: b530 ab3a e6c3 9839 04c7 4639 11b5 473b
000001b0: d89a 713b 9b73 a93b 495e 4139 c1af 8cba
000001c0: 7125 b8bb 09f5 12ba 22e5 a8ba e6cd a8b9
000001d0: be15 3eba 7c8e 00bb 241c eb38 d0ea c4ba
000001e0: 2dfd 4bba 58e2 8fbb 87a3 b5bb 29a6 c539
000001f0: 71fd a73b c180 66bb 1a48 fbb9 8c75 05ba
00000200: c6aa 40ba 772a 8bbc 910e 88ba e681 cb38
00000210: dddc 843a 5a59 64b9 b995 bf39 13e1 89b9
00000220: c252 1b3b 00ec 27bb 35aa 81ba 9630 4b3a
00000230: 0cfd 4fba 09ef b53c 3894 a339 b867 f43b
00000240: a477 e4bc f1e3 f439 c427 bb3a d574 9ab8
00000250: ae19 ccb9 8216 6bba ab9d c4b9 9ceb 7cb9
00000260: 9dca c835 afc5 8bb9 786c b5bc b380 feb9
00000270: 0d4d f7b9 95b5 6b3a d5c8 8739 2398 0d3a
00000280: 944f cfb8 4b92 4e3d 6769 cfb9 819a 0aba
00000290: 5abc c139 57d0 d439 98b2 5739 9849 aa3a
000002a0: 6299 e33a 3334 863a 61e8 8cba c4d6 ec3a
000002b0: 73fd 8e3a 6f2c 443b a41a 15b9 e462 a1b8
000002c0: 44f3 82bd 410b 36b9 6804 f938 4dd0 c9ba
000002d0: 743a 34ba 70cd a33a c0d0 9aba e289 8dba
000002e0: 834e a8b9 5553 b2bb 2df6 09bb e5b0 023b
000002f0: aa2a 933b 362d 0cbb d10d 69ba a783 c4ba
00000300: aa6f 12ba 37be 2a3c 1fc1 6dba 8704 f3b9
00000310: 4ca7 813a 046c cab9 2ffb c8b9 376b 823a
00000320: db80 0b3b 0779 4cbb a34c e5b9 879e ee3a
00000330: 8d04 51b9 6e9a cb3c 6fed 3d3a c7f0 f63b
00000340: 6d98 033c 3277 4039 58d7 193a 0882 9a39
00000350: 1ed4 c9b9 0db2 04bb 457b e3b9 3022 c2b9
00000360: 9e25 66b9 6ea0 0f39 d6f9 c8bc 6584 a9ba
00000370: f407 f539 aaa8 2539 2956 b739 aa93 6e3a
00000380: bf42 19ba 887b 563d 44ad fdb8 a679 a8ba
00000390: db93 613a 60b5 4e39 7a05 8639 8645 eb3a
000003a0: cd91 1e3b b183 cf39 66c7 30ba 42b7 e33a
000003b0: 9937 993a 38fd 213b 7a0f a1ba d734 f639
000003c0: 85ec 9abd a727 22ba dc86 bc39 dd8e f7b9
000003d0: 303d cab9 da69 f63a b83d 04bb e957 bdba
000003e0: dac4 64ba ab9d 9ebb 6d1b 5fba 70f3 0f3b
000003f0: 3d0c b23b a3fc 5abb 76ac bbba dac5 69ba
-0.0009121884 -0.03094162 -0.0014400627 0.00015310472 0.0013422589 0.00026939754 0.0011271563 -0.0011535067
0.0025172995 -0.0022344433 -0.0015363907 0.00042476313 -0.0018962155 0.021308417 0.00040356867 0.0079395
-0.048767094 0.00071148854 0.0020972546 -0.00043619354 -0.00022618994 0.00027971965 -0.00090929813 -0.0001127947
0.00020765724 -0.00059212436 -0.020811046 5.0615923e-05 -0.00063732365 0.0014353994 -1.7609476e-05 0.00024910792
-0.0005799622 0.027577052 -0.0013380622 -0.0004954417 0.00054245297 0.0008273383 0.0012964222 -0.00033667608
0.0019505488 0.0015006386 -0.0017630283 0.0011008172 -0.0007236128 0.0013307206 -0.00054490974 0.0007556429
-0.09811528 0.00020076684 0.0010681595 -0.002242758 -0.00034847698 0.002819718 -0.0017599154 -0.0011304633
-0.000490128 -0.0058733593 -0.00024817788 0.0025743218 0.0040632826 -0.0014419165 -0.0013572352 -0.0018587124
-0.00027402202 0.013975934 2.3100423e-05 -0.00020625643 0.00066088664 -0.0010557487 -0.00115641 0.0019292097
0.0020614802 -0.0032309333 -4.452941e-05 0.0016059375 0.0013233675 0.02418003 0.0010310039 0.006373284
0.018620046 0.00012802317 0.00036423525 0.0010722268 -0.00049145095 -0.0033489128 0.0004953527 -0.00039591594
-0.00017502764 0.0003962504 -0.024821384 -0.0018137061 0.00020374486 -0.00024442183 0.00060383807 0.0012459249
0.00029738471 0.088465184 0.00092351023 -0.0013476929 -0.00037582943 -0.00080969784 -0.0017393534 0.0037672778
0.001306078 0.00029137655 0.0001895689 0.0030472914 0.0036865976 0.005171252 0.00018441038 -0.0010733531
-0.0056196977 -0.0005605971 -0.001288567 -0.00032196863 -0.00072511646 -0.0019616177 0.00011210915 -0.0015023593
-0.00077815616 -0.004390996 -0.0055431756 0.00037698567 0.005126648 -0.0035171958 -0.0004792817 -0.0005091063
-0.0007349666 -0.016988022 -0.0010380318 9.70399e-05 0.0010136623 -0.0002177706 0.0003654191 -0.0002629837
0.002370045 -0.0025622845 -0.0009892645 0.00077510753 -0.000793413 0.022208707 0.00031200214 0.0074586533
-0.02788908 0.00046709136 0.0014278819 -7.365054e-05 -0.00038929045 -0.00089678925 -0.00037501505 -0.00024120364
1.4960129e-06 -0.00026659432 -0.022146448 -0.00048542544 -0.00047168919 0.00089915964 0.00025898838 0.0005401393
-9.885352e-05 0.050432485 -0.00039560648 -0.0005287305 0.00036952161 0.00040591016 0.00020570529 0.0012991903
0.0017364437 0.0010238945 -0.0010750407 0.0018069376 0.0010909274 0.002993371 -0.00014219672 -7.695498e-05
-0.063940555 -0.00017361065 0.00011874066 -0.0015397161 -0.0006875165 0.0012497138 -0.001181148 -0.0010798539
-0.00032101953 -0.005442063 -0.0021051273 0.0019941863 0.00449117 -0.0021389253 -0.00088903034 -0.0014992849
-0.0005586097 0.010421327 -0.000906961 -0.00046351945 0.0009891777 -0.0003860892 -0.0003833412 0.0009950165
0.002128652 -0.0031200068 -0.00043735382 0.0018205204 -0.00019933489 0.024853911 0.0007245158 0.007536027
0.008031947 0.0001835495 0.00058685755 0.0002947005 -0.00038495747 -0.0020247728 -0.00043388657 -0.00037028035
-0.00021948523 0.00013697307 -0.024533194 -0.0012933133 0.00046735967 0.00015798458 0.00034968674 0.0009100983
-0.0005846433 0.052363902 -0.00012096253 -0.0012853637 0.0008605101 0.00019713258 0.00025562552 0.0017949797
0.002419579 0.00039580234 -0.000674358 0.0017373341 0.0011689543 0.002471758 -0.0012287938 0.00046960145
-0.07564644 -0.0006185718 0.00035958632 -0.00047217953 -0.0003857403 0.0018799857 -0.0020178389 -0.0014445755
-0.0008726843 -0.004840573 -0.00085108617 0.0021965168 0.005433588 -0.0033414743 -0.0014318365 -0.0008917727

conv2.bias f4 [14]
00000000: 5e28 6c3e c2b4 613d 2f38 2cbe cd80 e4bd
00000010: ffc9 d43e 1d8b b53e 16fa 163f 389f b73e
00000020: efb3 fc3e 1ecb eb3e 8634 dd3e 4654 143f
00000030: d0a9 0f3f 9da3 153f
0.23062274 0.055104025 -0.16818307 -0.11157379 0.4156036 0.35457698 0.5897535 0.35863662
0.49356028 0.46053404 0.43204135 0.5794109 0.5611849 0.5845278
