face_decide/param/r_net.pth (torch_old, 406760 bytes, 11 tensors)

r_layer.0.weight f4 [28, 3, 3, 3]
0	0xbe0649b7	-0.13114057
1	0x3ec2e379	0.38064173
2	0xbd32472b	-0.043524902
3	0x3e306154	0.17224628
4	0x3e27a1dd	0.1637034
5	0xbec21e54	-0.37913764
6	0x3e9552b0	0.29164648
7	0xbca9752c	-0.020685755
8	0xbda08d9f	-0.07839512
9	0xbce60193	-0.028076923
10	0x3e65d5e4	0.22444874
11	0xbdee5d37	-0.11638873
12	0xbd92f2eb	-0.07175239
13	0x3e30a188	0.1724912
14	0xbe6fc330	-0.23414302
15	0xbe2d4e98	-0.16924512
16	0xbe8e0bb0	-0.27743292
17	0x3ec97071	0.39343598
18	0xbf18cea3	-0.596903
19	0x3bd88f10	0.0066088513
20	0xbf0657b8	-0.524776
21	0xbb489081	-0.003060371
22	0x3e663f68	0.22485125
23	0xbeb1878c	-0.34673727
24	0x3bf9b2f5	0.0076202103
25	0x3ed72af8	0.4202497
26	0x3f128b1c	0.57243514
27	0xbe89f1a4	-0.2694217
28	0x3a84b5e8	0.0010125013
29	0x3df0944f	0.117470376
30	0x3de107a6	0.10987787
31	0xbe8b9263	-0.27260122
32	0x3ec81646	0.39079493
33	0x3d7d414e	0.061829858
34	0xbc3e3629	-0.0116095925
35	0x3df63a81	0.120228775
36	0xbdd138fe	-0.102159485
37	0xbe627bcd	-0.22117539
38	0x3f06fef0	0.52732754
39	0x3dadd9d6	0.084888145
40	0xbc1f4592	-0.009721177
41	0xbea84856	-0.32867688
42	0x3c507331	0.012722776
43	0xbee37344	-0.44423878
44	0xbc875d65	-0.016524026
45	0x3d52dffb	0.051483136
46	0xbeefa633	-0.46806487
47	0x3e79afc7	0.2438346
48	0x3e0bda27	0.13657437
49	0xbef1901c	-0.4718026
50	0x3ec75f70	0.3894
51	0x3e27870e	0.16360113
52	0xbe96805b	-0.29394802
53	0x3efa3d52	0.4887491
54	0x3ec62e55	0.38707224
55	0xbef82153	-0.48462924
56	0xbe243ecd	-0.16039582
57	0xbf677d07	-0.9042515
58	0xbd849e83	-0.06475546
59	0xbdba215a	-0.090883926
60	0x3e8e9a6b	0.27852187
61	0x3e2293f4	0.15876752
62	0x3e5f24f8	0.21791446
63	0x3ecade04	0.3962251
64	0x3f188ffd	0.5959471
65	0xbca0c52d	-0.01962527
66	0x3e4128e5	0.18863256
67	0xbc391067	-0.0112954145
68	0x3e7bac2f	0.24577402
69	0xbd5ea83d	-0.054359663
70	0x3eba1ca5	0.3634998
71	0x3e62530e	0.22101995
72	0xbe3e1014	-0.18560821
73	0xbedf177e	-0.4357261
74	0xbe26d959	-0.16293849
75	0xbdeea377	-0.11652272
76	0x3e8e0678	0.2773931
77	0xbdecb5b3	-0.11558094
78	0xbe12e710	-0.14345956
79	0xbe4c5ddf	-0.19957684
80	0xbea73985	-0.3266107
81	0xbdb532b5	-0.08847562
82	0x3dd5ee43	0.104458354
83	0x3eeab389	0.458401
84	0x3dfb9b69	0.122855015
85	0xbeb0f072	-0.34558445
86	0xbee2ec91	-0.4432111
87	0x3ebc2006	0.36743182
88	0x3e6203dc	0.22071785
89	0x3ca8b07c	0.020591967
90	0x3da5c4b5	0.080941595
91	0xbe0fa0e0	-0.14026213
92	0x3d6d6bf6	0.057964288
93	0x3d83680f	0.06416332
94	0xbe87f629	-0.26554993
95	0xbf0daa49	-0.5533796
96	0xbdc9c1f6	-0.09851448
97	0xbbfe17de	-0.00775431
98	0x3eaa92ae	0.33315033
99	0xbe696846	-0.22793683
100	0xbba0466a	-0.0048912065
101	0x3e49b8c4	0.19699389
102	0xbdbf59b7	-0.093432836
103	0xbeb2051e	-0.3476953
104	0xbed10a0a	-0.40827972
105	0x3ea7ceb4	0.3277489
106	0x3f208d35	0.62715465
107	0x3e8e78e5	0.2782661
108	0xbdb0e2fb	-0.08637043
109	0x3f77858a	0.9668814
110	0xbd8e453a	-0.06946798
111	0x3e81ef16	0.2537772
112	0xbddb720c	-0.10715112
113	0xbea45e5c	-0.3210324
114	0xbdf1417b	-0.117800675
115	0xbe4f414e	-0.20239756
116	0xbed44f8b	-0.41466936
117	0x3dd7144d	0.10501919
118	0x3f0e48a4	0.5557959
119	0x3e0db260	0.13837576
120	0x3e643e1f	0.22289322
121	0x3dcbab22	0.0994475
122	0xbece59b9	-0.40302828
123	0xbe405ea9	-0.1878611
124	0xbe39b12f	-0.18133996
125	0xbe43c4bb	-0.19118015
126	0x3df7e5ba	0.12104364
127	0xbeb43af7	-0.35201237
128	0x3e7bf29f	0.24604271
129	0x3eeb53fd	0.45962515
130	0xbd862e10	-0.065517545
131	0xbcafa234	-0.02143965
132	0x3df24796	0.1183006
133	0xbef1e04d	-0.4724144
134	0xbe1f154e	-0.15535471
135	0xbe8e369a	-0.27776033
136	0xbdbb153c	-0.091349095
137	0x3e816143	0.25269517
138	0x3f23b5db	0.63949364
139	0x3ea47354	0.32119238
140	0xbc8061cd	-0.015671635
141	0xbe534154	-0.2063039
142	0xbe8995c9	-0.2687209
143	0xbe708f85	-0.23492248
144	0xbea4243c	-0.32058895
145	0xbeb06cff	-0.34458157
146	0xbed8e9f7	-0.42366
147	0x3ee77926	0.45209616
148	0x3f5c5485	0.86066467
149	0x3eb44ef2	0.3521648
150	0xbf006ecc	-0.5016906
151	0xbeb9e5f3	-0.3630825
152	0xbe00be91	-0.12572695
153	0xbe2bb1ba	-0.16767016
154	0xbea5b7e1	-0.3236685
155	0xbd084a88	-0.033274204
156	0x3ef42b6a	0.47689372
157	0x3e43237f	0.1905651
158	0x3d0ed594	0.034871653
159	0xbd34781b	-0.044059854
160	0xbe31f63a	-0.17379084
161	0x3d56bb55	0.052424747
162	0x3dcbf06a	0.09957965
163	0x3f0cb097	0.54956955
164	0x3efe0b33	0.4961792
165	0xbe53510c	-0.20636386
166	0xbf200731	-0.62510973
167	0xbe342a18	-0.17594182
168	0x3e6a9342	0.22907737
169	0xbe7cf9d2	-0.24704674
170	0xbdeac5e1	-0.11463524
171	0x3e8317f5	0.25604215
172	0x3e90a181	0.28248218
173	0x3eac5a85	0.3366281
174	0xbee0bff2	-0.43896443
175	0xbef2dfd0	-0.4743638
176	0x3dc5d7f6	0.09660332
177	0x3eb10510	0.34574175
178	0xbe7fc117	-0.24976002
179	0xbe009996	-0.12558588
180	0xbf0f1f4f	-0.5590715
181	0x3e2361bf	0.15955256
182	0x3e2218cc	0.15829772
183	0x3e90bc3a	0.28268605
184	0xbdcd7f2f	-0.10034024
185	0xbe541ba3	-0.20713668
186	0xbe0498a7	-0.12948857
187	0x3e9f50e1	0.31116393
188	0xbd0e5d60	-0.034757018
189	0xbe1bba98	-0.15207899
190	0xbe1057ec	-0.1409604
191	0xbf500c09	-0.81268364
192	0x3e2d65e1	0.16933395
193	0xbde10360	-0.10986972
194	0x3ef138bc	0.47113597
195	0xbda1825f	-0.078861944
196	0xbd54c42b	-0.051944893
197	0x3dde243e	0.108467564
198	0x3e21933f	0.15778826
199	0x3ddb7203	0.107151054
200	0xbe051753	-0.12997179
201	0xbd31e583	-0.04343177
202	0xbd2eeb0e	-0.042704634
203	0x3eab9b90	0.33517122
204	0xbeff326c	-0.49843156
205	0xbe61ee44	-0.22063547
206	0x3dc92c79	0.098229356
207	0x3ef77a1d	0.48335353
208	0xbdd2f251	-0.103001244
209	0x3eeed3c3	0.46645936
210	0x3e8c36ea	0.27385646
211	0xbe65c147	-0.2243701
212	0x3f30d093	0.6906826
213	0x3eca7639	0.39543322
214	0xbf1af16f	-0.6052465
215	0xbe57c76f	-0.21072172
216	0xbec57ee1	-0.38573363
217	0x3e3e1097	0.18561016
218	0x3e253282	0.16132548
219	0xbe6b6e6b	-0.2299134
220	0xbe2a8aaa	-0.16654459
221	0x3eedea5e	0.4646787
222	0x3eb25336	0.3482911
223	0xbe49f657	-0.19722877
224	0xbdfa4875	-0.12220851
225	0xbf1a52ff	-0.6028289
226	0x3ef0de97	0.47044823
227	0x3e2b4a5a	0.16727582
228	0x3e9f3282	0.31093222
229	0xbe316700	-0.17324448
230	0xbe8ca880	-0.27472305
231	0x3ede80f2	0.43457752
232	0xbccd49b0	-0.025059551
233	0xbef733d7	-0.48281738
234	0xbc89854d	-0.016787196
235	0xbdd57c9f	-0.1042416
236	0x3e81c734	0.25347292
237	0xbee93dfb	-0.455551
238	0x3da6be8c	0.08141813
239	0x3e3571db	0.17719214
240	0x3ed3a43e	0.41336244
241	0x3c8c7c13	0.017149007
242	0xbe8790a6	-0.26477545
243	0x3eac11a7	0.33607218
244	0x3e8853e2	0.26626498
245	0xbf04a974	-0.51821065
246	0x3e047292	0.1293433
247	0xbe8e64b1	-0.27811196
248	0xbf287f8a	-0.6581961
249	0x3eb74118	0.3579185
250	0x3e961f84	0.2932092
251	0x3eb44341	0.3520756
252	0x3ea5956b	0.3234056
253	0xbd65f74b	-0.05614404
254	0xbd7e53c4	-0.062091604
255	0xbe18a748	-0.14907563

r_layer.0.bias f4 [28]
0	0xbe99eadb	-0.30061993
1	0xbd887ac6	-0.06664042
2	0xbd8550ba	-0.06509538
3	0xbdbe28bd	-0.09285114
4	0xbdb08be6	-0.086204335
5	0xbe0461a3	-0.1292787
6	0xbd83572a	-0.064131096
7	0xbd826eaf	-0.063687675
8	0xbe204d17	-0.15654407
9	0xbe64543a	-0.22297755
10	0xbdaa20df	-0.08307051
11	0xbdbb3f14	-0.091428906
12	0xbd8cb194	-0.06869808
13	0xbcd42227	-0.025895191
14	0xbe12c099	-0.14331283
15	0xbd9b9ee3	-0.075986646
16	0xbe88b8cb	-0.26703486
17	0xbd8d2601	-0.06892014
18	0xbe2ed9a6	-0.17075214
19	0xbe86c7f1	-0.26324418
20	0xbe7fd149	-0.2498218
21	0xbe21c09f	-0.15796135
22	0xbe3443b2	-0.17603949
23	0xbdd11b37	-0.10210269
24	0xbe2fd894	-0.17172462
25	0x3e6a9775	0.22909339
26	0xbdc03f16	-0.09387033
27	0xbde1af07	-0.11019712

r_layer.3.weight f4 [48, 28, 3, 3]
0	0xbe0a4bf7	-0.13505541
1	0xbc3af460	-0.011410803
2	0xbdefda30	-0.11711538
3	0xbdae7537	-0.08518451
4	0xbce06158	-0.027390167
5	0x3e9c25c0	0.3049755
6	0x3e27c19f	0.16382454
7	0x3b99ce3e	0.0046937754
8	0xbd5a9337	-0.05336305
9	0x3e82634b	0.2546638
10	0x3d8d33ec	0.06894669
11	0xbe0a7df1	-0.13524605
12	0xbe3c9f43	-0.18420129
13	0xbd6b8583	-0.057500374
14	0x3dfdbee3	0.123899244
15	0xbdcbe781	-0.09956265
16	0xbb021412	-0.0019848389
17	0x3e7ef6c0	0.24898815
18	0xbde657c0	-0.11247206
19	0xbd80d95d	-0.06291459
20	0xbdd0c16a	-0.10193141
21	0xbe36514c	-0.1780445
22	0xbe425c10	-0.18980432
23	0xbe8d0052	-0.27539307
24	0xbd45433e	-0.04815983
25	0x3ce3e5a9	0.027819471
26	0xbed6b379	-0.41933802
27	0xbec54ad0	-0.3853364
28	0x3daa2e93	0.083096646
29	0x3e9928cf	0.29913947
30	0x3e72ba6a	0.23703924
31	0x3d87f708	0.06638914
32	0x3deab162	0.11459614
33	0x3cea64e6	0.028612565
34	0x3e257a71	0.16159989
35	0x3e4b44c9	0.19850458
36	0xbd7a73ff	-0.06114578
37	0xbe9aba85	-0.30220428
38	0x3e8d646b	0.27615675
39	0xbe40c02f	-0.18823312
40	0xbe9cd217	-0.30629036
41	0x3e20f026	0.1571661
42	0xbeb49746	-0.35271662
43	0xbf13a691	-0.57676035
44	0x3e6946e6	0.22780952
45	0xbf439233	-0.7639496
46	0xbd0561a3	-0.032563817
47	0x3e0e9394	0.13923484
48	0x3e36faa6	0.17869052
49	0xbf0295ac	-0.5100963
50	0x3e31692a	0.17325273
51	0x3e27e9fa	0.16397849
52	0xbdece7c0	-0.1156764
53	0x3e796d29	0.24358048
54	0x3e293c57	0.16526924
55	0xbe27788d	-0.1635458
56	0xbddfb9f8	-0.109241426
57	0xbcb69a44	-0.022290356
58	0x3eb70949	0.35749272
59	0x3e47668a	0.1947271
60	0xbe74a33d	-0.23890395
61	0x3ce4a1b0	0.02790913
62	0x3e526008	0.20544446
63	0xbed8aeca	-0.42320853
64	0xbcbdbb8d	-0.02316072
65	0xbf3e10d4	-0.7424443
66	0xbe1f637e	-0.15565297
67	0xbe3968dd	-0.18106408
68	0xbeab8486	-0.33499545
69	0xbe846fd1	-0.2586656
70	0xbe0bbe1a	-0.13646737
71	0x3e1f9471	0.1558397
72	0xbbbd1957	-0.005770843
73	0x3dd53fbb	0.10412546
74	0x3beec868	0.007287074
75	0x3d2ee0a0	0.042694688
76	0x3eb74234	0.35792696
77	0xbe8dd624	-0.2770244
78	0x3e858c1f	0.26083466
79	0x3e38a20c	0.18030566
80	0x3dfcdd27	0.12346869
81	0x3ea8a2ce	0.3293671
82	0x3c64cd3e	0.013964949
83	0xbdaf2895	-0.08552662
84	0x3e22a480	0.15883064
85	0xbe398e0e	-0.18120596
86	0xbde2b07c	-0.11068818
87	0x3da1758e	0.0788375
88	0xbea285e4	-0.31742775
89	0xbefc49ed	-0.4927515
90	0x3e050cdf	0.12993191
91	0x3e4eeea8	0.20208228
92	0xbeab263f	-0.33427617
93	0xbe5b9e1d	-0.21447034
94	0x3e5cf3f6	0.21577439
95	0x3ea3c22e	0.31984085
96	0xbdee2d3d	-0.11629722
97	0xbe8ebdeb	-0.2787927
98	0xbda53e52	-0.08068527
99	0xbd0e4018	-0.034729093
100	0xbc9e32ff	-0.019311426
101	0x3e774ced	0.24150439
102	0xbe04e804	-0.12979132
103	0x3e2ea6d0	0.17055821
104	0xbd1c4514	-0.038151816
105	0x3d52cf23	0.051467072
106	0x3b30ea3e	0.0026995088
107	0x3d33ce81	0.04389811
108	0xbeb3c1c6	-0.35108775
109	0xbcec20d3	-0.028824246
110	0x3e1eed3e	0.15520188
111	0x3e01b54a	0.12666813
112	0x3c078511	0.008271472
113	0xbd2109d8	-0.03931603
114	0x39a39b6e	0.00031205587
115	0xbdcecd59	-0.10097761
116	0xbd7b9cef	-0.06142896
117	0xbe458c9f	-0.19291924
118	0xbbc810a0	-0.0061054975
119	0xbf311a52	-0.69180787
120	0xbd874027	-0.06604033
121	0x3e733146	0.23749265
122	0x3defc72a	0.117079094
123	0xbb8e654a	-0.0043455707
124	0x3ea38136	0.31934518
125	0x3e21e20e	0.1580889
126	0x3ddfb3e6	0.10922985
127	0xbe97596f	-0.2956042
128	0xbd23cc7a	-0.039989926
129	0x3d62097a	0.05518482
130	0x3e5f9ddf	0.21837567
131	0x3e4c5a68	0.19956362
132	0x3d20d087	0.039261367
133	0xbe316bf2	-0.17326334
134	0xbd318482	-0.04333926
135	0x3d90bc79	0.07067198
136	0x3e4e8068	0.2016617
137	0x3cebcc71	0.028784009
138	0xbdbb5860	-0.091477156
139	0xbe7a5b45	-0.24448879
140	0xbec2544c	-0.37954938
141	0xbeccac2a	-0.399751
142	0xbdebf756	-0.11521785
143	0x3c4604fe	0.012086151
144	0x3dbb97e5	0.09159831
145	0xbe1831cf	-0.1486275
146	0x3ead8d48	0.33896852
147	0xbe42432b	-0.18970935
148	0x3e165ac2	0.14683059
149	0xbebe1a88	-0.37129617
150	0xbdde9f01	-0.10870171
151	0xbbb8ec3b	-0.0056433952
152	0x3e27431f	0.16334198
153	0x3ec93fda	0.39306527
154	0xbd4b056d	-0.04956572
155	0xbebcf7d9	-0.36907843
156	0xbd5036d3	-0.050833534
157	0xbea9a094	-0.33130324
158	0xbd72b17b	-0.05925129
159	0xbcba945a	-0.022775818
160	0xbe6c27fa	-0.23062125
161	0xbb6fbe8b	-0.0036582078
162	0x3e950c2c	0.2911085
163	0xbeb34bd4	-0.3501879
164	0xbea590e0	-0.32337093
165	0xbd0e60bc	-0.03476022
166	0xbe93c4fe	-0.2886123
167	0xbe744394	-0.23853904
168	0xbd3b28d1	-0.045693222
169	0x3e10ac07	0.14128123
170	0x3e8b534c	0.27211988
171	0x3dc438be	0.09581135
172	0xba6794df	-0.0008834134
173	0x3dcd2461	0.10016704
174	0xbdcd70d4	-0.10031286
175	0xbe0848dd	-0.13309045
176	0xbe0c198c	-0.1368162
177	0xbd5a0e5c	-0.05323635
178	0xbe49e754	-0.19717151
179	0xbeab8396	-0.3349883
180	0x3db156ae	0.08659111
181	0xbba7e28b	-0.0051234416
182	0x3e907596	0.2821471
183	0xbe91a903	-0.28449258
184	0xbe2b0499	-0.16700973
185	0x3e486ec4	0.19573504
186	0xbe9028b2	-0.28156048
187	0xbeb38419	-0.3506172
188	0xbe6eb010	-0.2330935
189	0x3ecc777d	0.39934912
190	0xbcd345c2	-0.025790099
191	0xbef5c2b1	-0.480001
192	0x3dc4593f	0.09587335
193	0xbd29da09	-0.0414677
194	0x3d403d5f	0.046933528
195	0x3e7acf76	0.24493203
196	0x3ca7de33	0.020491695
197	0xbe02c038	-0.12768638
198	0x3ea1f3a8	0.31631207
199	0x3e3856d3	0.18001871
200	0xbe178cb3	-0.14799766
201	0x3ea18808	0.31549096
202	0x3c91df12	0.017806564
203	0xbe8914a2	-0.26773554
204	0xbe60da8d	-0.2195837
205	0x3db37d87	0.08764177
206	0xbc8f30ba	-0.01747929
207	0xbf28b290	-0.65897465
208	0xbebb667a	-0.3660162
209	0x3eac530e	0.33657116
210	0xbdbf069f	-0.09327435
211	0x3c944eff	0.018104075
212	0x3d371aca	0.044703282
213	0x3e35e12a	0.17761675
214	0x3e9a3a0d	0.30122414
215	0x3eab716b	0.3348497
216	0x3d4b9dc4	0.049711004
217	0xbd46cc7b	-0.04853485
218	0x3e9fdd98	0.3122375
219	0x3daa172c	0.08305201
220	0xbdde6a3f	-0.108601086
221	0xbcb13668	-0.021632388
222	0xbd5fa467	-0.054600146
223	0xbd61fede	-0.0551747
224	0xbe94c3fe	-0.2905578
225	0xbe00d0eb	-0.12579696
226	0xbf1f65d7	-0.6226477
227	0xbf24f3cc	-0.64434505
228	0xbea85540	-0.3287754
229	0xbe9d900b	-0.3077396
230	0x3e2c2752	0.16811875
231	0x3e7fbfcd	0.2497551
232	0x3e528e02	0.20561984
233	0x3f00b4eb	0.5027606
234	0x3e29e343	0.165906
235	0x3e47f3e4	0.1952663
236	0xbe6d0711	-0.23147227
237	0xbdf6870b	-0.12037476
238	0x3d28cdab	0.041211765
239	0x3d06e1c9	0.03293017
240	0x3d828007	0.063720755
241	0x3dd03457	0.10166233
242	0xbcae5000	-0.021278381
243	0xbeac1f9f	-0.33617875
244	0xbeaaa13c	-0.33326137
245	0x3e073a77	0.13205896
246	0x3e57a757	0.21059929
247	0xbc6d2b1c	-0.01447561
248	0x3e77ac51	0.24186827
249	0xbdc4cd93	-0.09609523
250	0x3ce3a716	0.027789634
251	0x3ebfe93a	0.37482625
252	0x3e89b4a9	0.26895645
253	0x3dd85ff5	0.10565177
254	0xbe8ed830	-0.27899313
255	0x3e4ca9ae	0.19986603

r_layer.3.bias f4 [48]
0	0xbe27f7c8	-0.16403115
1	0xbdd23ef4	-0.102659136
2	0xbe9d48bd	-0.30719557
3	0xbe7c3ef0	-0.24633384
4	0xbdc1155f	-0.09427904
5	0xbcab4675	-0.02090762
6	0xbecb4c9c	-0.39706886
7	0xbe2f5b75	-0.17124732
8	0x3e06af22	0.13152745
9	0xbe1d643d	-0.15370269
10	0xbed19d26	-0.40940207
11	0xbe711d75	-0.23546393
12	0xbdb6464b	-0.08900126
13	0xbca765cc	-0.020434283
14	0xbd8d0563	-0.06885793
15	0x3e09c6f1	0.13454796
16	0x3e0a0051	0.13476683
17	0xbe72e3c0	-0.23719692
18	0xbe2fcb10	-0.17167306
19	0xbe36f990	-0.17868638
20	0xbdc8117f	-0.09768962
21	0x3d87813c	0.066164464
22	0xbd02669d	-0.03183614
23	0x3e159483	0.14607434
24	0xbe87b8c4	-0.26508152
25	0x3dc4f8a9	0.09617741
26	0xbddaf470	-0.10691154
27	0x3d54624a	0.05185155
28	0xbd7e2ace	-0.06205254
29	0xbe7b5cdb	-0.2454714
30	0x3c8d1508	0.017221943
31	0xbdf0b03b	-0.11752363
32	0x3d5f6bc4	0.054546133
33	0x3d501539	0.05080149
34	0xbd95bf20	-0.07311845
35	0xbe401713	-0.18758802
36	0xbe25dcdb	-0.16197531
37	0xbe53ab49	-0.20670809
38	0xbdb9f1c9	-0.0907932
39	0x3d5866fa	0.05283258
40	0xbdeca1d0	-0.11554301
41	0xbe42ab3a	-0.1901063
42	0x3d384be5	0.044994254
43	0xbdbc009f	-0.09179806
44	0xbe8a43fc	-0.27004993
45	0xbe9ea08b	-0.3098186
46	0xbe9cfa48	-0.306597
47	0x3d41a1e5	0.047273535

r_layer.6.weight f4 [64, 48, 2, 2]
0	0xbea521e2	-0.32252413
1	0xbccc26b5	-0.0249208
2	0xbe74ecc9	-0.23918451
3	0xbe9a6623	-0.3015605
4	0x3ea85a63	0.3288146
5	0xbe1d6289	-0.1536962
6	0x3d9db6a8	0.077008545
7	0xbe8e4c33	-0.2779251
8	0x3c0fc0bc	0.008773979
9	0xbeaf2910	-0.34211016
10	0x3c33fde5	0.010985826
11	0x3c9ce809	0.019153612
12	0x3e9a959b	0.30192265
13	0x3d21fc9f	0.03954756
14	0x3e8ce4f7	0.27518436
15	0xbc3e511e	-0.0116160195
16	0xbe944a0f	-0.28962752
17	0xbe22dc05	-0.15904243
18	0x3db808d8	0.08986062
19	0x3c88cedf	0.016700206
20	0xbd387920	-0.04503739
21	0xbf04788f	-0.5174646
22	0x3eac816a	0.33692485
23	0xbe20bc3f	-0.1569681
24	0xbbc1b1cd	-0.005911088
25	0x3e5158fe	0.20444104
26	0xbdfe2a84	-0.12410453
27	0xbe839a18	-0.25703502
28	0x3df4b27e	0.11948107
29	0x3d6703b8	0.05640003
30	0x3df24dfb	0.1183128
31	0x3c64fad2	0.013975816
32	0x3da4cb09	0.080465384
33	0x3c917331	0.017755123
34	0xbece9230	-0.40345907
35	0x3d7b1a51	0.061304394
36	0xbd80c01f	-0.06286644
37	0x3de3ac92	0.111168995
38	0xbe13c18f	-0.14429305
39	0x3e0d9244	0.13825327
40	0x3da9bcef	0.08287989
41	0xbd015c23	-0.03158201
42	0x3dc35b88	0.095389426
43	0xbe349668	-0.176355
44	0xbe1a31c7	-0.15058051
45	0xbd2709ff	-0.040781017
46	0xbf01f4da	-0.5076424
47	0xbdb1704f	-0.08663999
48	0x3dc1d0d2	0.094636574
49	0xbd3e72c4	-0.046496168
50	0xbed04845	-0.40680137
51	0x3d196ff5	0.037460286
52	0x3cccc7fa	0.0249977
53	0xbe299a10	-0.16562676
54	0xbd66c201	-0.05633736
55	0xbdb7bdf0	-0.089717746
56	0xbd702f1a	-0.05863867
57	0xbdb4aa09	-0.08821494
58	0xbe2e10af	-0.16998552
59	0x3e07092d	0.13187094
60	0x3d4385bb	0.047734957
61	0x3e081fc7	0.13293372
62	0xbea95855	-0.33075204
63	0x3dc79af7	0.09746354
64	0x3ddd2ecb	0.10799941
65	0xbc9a2c66	-0.018819999
66	0x3d56eee4	0.052473918
67	0xbe828c3f	-0.25497624
68	0xbf19c725	-0.60069495
69	0xbea49c03	-0.32150277
70	0x3ddf619b	0.10907289
71	0x3e2c7ad4	0.1684373
72	0xbe25f002	-0.16204837
73	0x3e7f7082	0.24945262
74	0x3d07417d	0.03302144
75	0xbd76e40b	-0.060276072
76	0x3e595a5f	0.2122588
77	0xbe71f221	-0.23627521
78	0x3d1be425	0.038059372
79	0x3cc21b4d	0.023694659
80	0xbe8e4d1e	-0.2779321
81	0x3e4e7d18	0.20164907
82	0xbe2bc71f	-0.16775177
83	0x3d78a92a	0.060708202
84	0x3bd0aa5b	0.006367964
85	0xbd35eb52	-0.044413872
86	0x3dba178e	0.09086524
87	0x3e3f008f	0.18652557
88	0x3eb788e2	0.3584662
89	0x3e01ec07	0.12687694
90	0x3e131509	0.14363493
91	0xbd17bc76	-0.037044965
92	0x3d341740	0.043967485
93	0x3cb0a566	0.021563243
94	0x3dee36bc	0.116315335
95	0x3eac12cb	0.33608088
96	0x3ec85f94	0.3913542
97	0xbe8c6d39	-0.2742708
98	0xbde9ef98	-0.11422652
99	0x3e76a3d0	0.24085927
100	0x3e5d1f64	0.21594006
101	0x3e9ea9ac	0.30988824
102	0x3e0b5101	0.1360512
103	0xbc07bd30	-0.008284852
104	0x3b82919e	0.003984644
105	0x3dcaa988	0.09895617
106	0xbe0499ca	-0.12949291
107	0x3d90682b	0.070511185
108	0xbda26a7b	-0.07930466
109	0xbdc3e661	-0.09565426
110	0x3ea98ce3	0.331153
111	0xbed49290	-0.41518068
112	0x3e0755d2	0.13216332
113	0xbd3339a1	-0.04375613
114	0xbe331b5c	-0.17490906
115	0x3edd190c	0.43183172
116	0x3df693b2	0.120398894
117	0x3e44ca2d	0.19217749
118	0x3e0b6312	0.13612011
119	0xbdebc552	-0.11512245
120	0xbd9d13de	-0.07669805
121	0xbc213d77	-0.0098413145
122	0x3d47720b	0.048692744
123	0xbd7ed500	-0.06221485
124	0x3e8d9802	0.27655035
125	0xbdca148e	-0.09867202
126	0xbdcb23db	-0.09918948
127	0xbee4601a	-0.4460457
128	0xbe21f9a4	-0.15817887
129	0x3bf317fb	0.00741863
130	0xbc04f63a	-0.008115346
131	0xbe9d3bcf	-0.30709693
132	0x3e7ee240	0.24890995
133	0x3dca661a	0.098827556
134	0xbdf91a00	-0.12163162
135	0xbe1e1ae1	-0.15439941
136	0xbdbed8bc	-0.093186826
137	0x3dc119fe	0.09428786
138	0xbe5e0269	-0.21680607
139	0xbd789a31	-0.060693923
140	0xbd4ec234	-0.050478175
141	0xbd8ec12b	-0.069704376
142	0xbe42cc73	-0.19023304
143	0x3e5539f5	0.2082289
144	0xbe95b6d4	-0.2924105
145	0xbf09781c	-0.536989
146	0x3e5ebea3	0.2175241
147	0xbe776668	-0.24160159
148	0xbd6b27c0	-0.057410955
149	0x3e92c816	0.28668278
150	0x3e729411	0.23689295
151	0xbe909040	-0.28235054
152	0xbdc85692	-0.09782137
153	0xbd35d852	-0.044395752
154	0x3e376ed9	0.17913379
155	0x3d07223b	0.03299163
156	0x3e5565c4	0.20839602
157	0xbf280310	-0.65629673
158	0x3ee72979	0.4514883
159	0x3f154fb8	0.58324766
160	0xbd7c8da2	-0.06165851
161	0xbe41df2d	-0.18932791
162	0xbe0b3f0a	-0.13598266
163	0x3d9bde2e	0.07610737
164	0xbe8b266d	-0.27177754
165	0x3ec26614	0.37968504
166	0x3c662ba6	0.014048493
167	0x3d0dc391	0.034610335
168	0xbe70765b	-0.23482649
169	0xbe498e41	-0.19683172
170	0xbeb843ca	-0.3598922
171	0x3df5e473	0.12006464
172	0xbd2075ac	-0.03917472
173	0x3e30ebf5	0.1727751
174	0xbe633b06	-0.22190484
175	0x3e067fee	0.13134739
176	0xbcd59c8e	-0.026075628
177	0xbe318456	-0.17335638
178	0xbd42371d	-0.04741584
179	0x3e16fdec	0.14745301
180	0x3ea9c96b	0.33161482
181	0x3dec0ecb	0.11526259
182	0xbe6bdc3b	-0.2303323
183	0xbe84488a	-0.25836593
184	0x3df1f0e3	0.118135236
185	0xb90dc25e	-0.00013519215
186	0xbe5307dc	-0.20608467
187	0x3e45023f	0.19239138
188	0x3e78ff80	0.24316216
189	0xbd9e2573	-0.077219866
190	0xbe36d4b8	-0.17854583
191	0x3dc7edb2	0.09762134
192	0xbe4820cf	-0.19543765
193	0x3e2e980e	0.17050192
194	0x3cfccb29	0.030858593
195	0x3e190ef1	0.14947106
196	0xbd6e352b	-0.058156174
197	0x3ddd8b66	0.10817604
198	0xbe5248a4	-0.20535523
199	0x3e29c33d	0.16578384
200	0xbbebd0ca	-0.0071965205
201	0x3e780839	0.24221887
202	0xbe1186cf	-0.14211582
203	0xbe1cc10f	-0.15308021
204	0x3e667b5a	0.22507992
205	0xbe9ea63f	-0.3098621
206	0xbe1bae00	-0.15203094
207	0xbe233a51	-0.15940215
208	0x3e91db54	0.28487647
209	0x3e1d7f2c	0.15380543
210	0x3ecaf692	0.39641243
211	0x3df9ffa2	0.12206961
212	0xbc4a0405	-0.01233006
213	0x3d272962	0.04081095
214	0xbba41d5e	-0.0050083837
215	0x3e380804	0.17971808
216	0x3e41a2b8	0.18909729
217	0xbd16df54	-0.036834076
218	0x3e15806e	0.14599773
219	0xbeb08048	-0.3447287
220	0xbe48dff7	-0.19616686
221	0x3d9ab3ef	0.07553851
222	0xbde234ff	-0.110452645
223	0x3e816066	0.2526886
224	0x3db99c0f	0.09062969
225	0x3de1e809	0.11030585
226	0xbcec0324	-0.028810091
227	0x3d93781a	0.07200642
228	0x3e89a53a	0.2688387
229	0xbe4c12ee	-0.19929096
230	0x3e2c24f9	0.16810979
231	0xbe8ead71	-0.278667
232	0x3cc09cb6	0.023512226
233	0xbce29e57	-0.027663393
234	0xbe09e57f	-0.13466452
235	0x3ed91c42	0.42404372
236	0xbe09f247	-0.13471328
237	0xbe4c4da1	-0.19951488
238	0x3e52ae49	0.20574297
239	0xbc921a55	-0.017834822
240	0xbe3619e6	-0.17783317
241	0xbd39b492	-0.04533822
242	0xbd314733	-0.04328079
243	0xbdb84b68	-0.089987576
244	0xbe9df307	-0.30849478
245	0x3e5eacf9	0.21745671
246	0x3dfd497b	0.12367531
247	0x3e99ca33	0.30037078
248	0x3da1af67	0.078947835
249	0x3e81aa5a	0.2532528
250	0xbe8d2da9	-0.27573898
251	0xbf04589f	-0.51697725
252	0xbca211d7	-0.019783897
253	0x3e902bb3	0.2815834
254	0xbea4d528	-0.32193875
255	0x3e9257cd	0.28582612

r_layer.6.bias f4 [64]
0	0x3e2fa95d	0.1715445
1	0xbc7ac255	-0.015305121
2	0x3d09333d	0.03349613
3	0x3d0e5321	0.034747247
4	0xbdb2c0f0	-0.08728206
5	0xbc89ca5f	-0.01682013
6	0x3d9dc82e	0.07704197
7	0xbeb193b0	-0.3468299
8	0x3de4134c	0.11136493
9	0xbda7411a	-0.08166714
10	0x3cc99e41	0.024611594
11	0xbe5626ba	-0.2091321
12	0x3e65a262	0.22425225
13	0x3edc4746	0.43023127
14	0x3db255c9	0.087077685
15	0xbd57ddd6	-0.052701794
16	0x3df80422	0.12110163
17	0x3e04e297	0.12977062
18	0x3d83b5d2	0.06431164
19	0xbcaf4b5c	-0.021398239
20	0xbd48d309	-0.049029384
21	0xbcd0a701	-0.025470259
22	0xbea79d8b	-0.32737383
23	0xbe888e50	-0.26671076
24	0xbe4689e3	-0.19388537
25	0x3da1cbb6	0.07900183
26	0xbe834a32	-0.25642544
27	0x3cb084f4	0.021547772
28	0xbb45fe76	-0.0030211485
29	0xbec275f2	-0.3798061
30	0xbdf3e309	-0.11908538
31	0x3e78beaa	0.24291483
32	0x3f2aaa62	0.66666234
33	0xbe0fd049	-0.14044298
34	0x3e326909	0.1742288
35	0x3e6e44e3	0.23268466
36	0x3e441b1e	0.1915097
37	0x3cd24ab4	0.025670387
38	0x3e0e6b7b	0.13908188
39	0xbe622ef2	-0.2208822
40	0xbd719c35	-0.05898686
41	0x3edae4df	0.4275274
42	0xbd157598	-0.0364891
43	0x3d6dda9c	0.05806981
44	0x3e432f44	0.19060999
45	0xbdb963e5	-0.090522565
46	0xbd97d5a4	-0.074137956
47	0xbe2353ef	-0.15949987
48	0x3e40f426	0.18843135
49	0xbe5c271e	-0.21499297
50	0xbdb29593	-0.08719935
51	0x3e1b4d8e	0.15166304
52	0xbec808c9	-0.39069203
53	0x3ee6b9c4	0.45063603
54	0xbeecf0c7	-0.4627745
55	0x3e6fc5e1	0.23415329
56	0xbe5ccaed	-0.21561785
57	0xbe9c9738	-0.3058412
58	0x3e46a667	0.19399415
59	0x3c0e5e59	0.008689486
60	0x3e4d1354	0.20026904
61	0xb936b45c	-0.00017424062
62	0xbcf2310b	-0.029564401
63	0xbed19eac	-0.4094137

liner1.weight f4 [128, 576]
0	0xbdcdb024	-0.10043362
1	0x3cba358b	0.02273061
2	0xbedd5c5a	-0.4323452
3	0xbc83075d	-0.015994722
4	0xbe016dc1	-0.12639524
5	0x3e1123e1	0.14173843
6	0xbea52c69	-0.32260445
7	0x3ef626d7	0.48076507
8	0xbc98a427	-0.018632961
9	0xbd5fcbf2	-0.054637857
10	0xbdf1d29f	-0.11807751
11	0x3cf38fd3	0.029731667
12	0xbdca3232	-0.09872855
13	0xbe2e7bc2	-0.17039397
14	0xbeb2410e	-0.34815258
15	0x3d2c6dc4	0.04209687
16	0x3e9891da	0.29798776
17	0xbe6ccc8a	-0.231249
18	0x3c1a59d0	0.009420827
19	0xbda82dc5	-0.08211855
20	0xbd6682c4	-0.05627705
21	0x3edb5cde	0.4284429
22	0x3daca4e4	0.08429888
23	0xbe358b7d	-0.17728992
24	0x3c8e8dfc	0.017401688
25	0x3d7ae949	0.061257634
26	0x3dd60c33	0.104515456
27	0x3e77c1fd	0.24195094
28	0x3d93565c	0.07194206
29	0xbdd01b20	-0.10161424
30	0x3d032688	0.03201917
31	0x3da56a31	0.08076895
32	0xbe0fb083	-0.14032178
33	0x3f1928aa	0.59827673
34	0xbcce7187	-0.025200618
35	0xbe6178ef	-0.22018789
36	0xbdf79c96	-0.12090413
37	0x3ddc225d	0.10748742
38	0x3d88be4d	0.06676922
39	0xbe8be9c3	-0.27326784
40	0x3d9bc401	0.07605744
41	0x3e59f1e5	0.21283682
42	0xbe7b8480	-0.24562263
43	0xbeb4245b	-0.35183987
44	0xbf265710	-0.64976597
45	0x3e25208f	0.16125701
46	0x3d8f3dd4	0.06994215
47	0x3df5349b	0.11972924
48	0xbd9f721e	-0.07785438
49	0x3d2efa2a	0.042719044
50	0xbe12a0b6	-0.14319119
51	0xbf135b65	-0.5756133
52	0xbe1ecc1d	-0.1550755
53	0x3ed15989	0.40888622
54	0x3c33dfd7	0.010978661
55	0x3e73279b	0.23745577
56	0x3f3e633b	0.74370164
57	0x3deeb04f	0.11654722
58	0xbd4f61b1	-0.050630275
59	0xbd17e82a	-0.037086643
60	0x3e8cdfae	0.27514404
61	0x3d9669ad	0.07344375
62	0xbdd85fbf	-0.10565137
63	0x3e9e29d9	0.30891302
64	0x3d725965	0.059167285
65	0x3d459bcf	0.048244294
66	0x3e2e3a14	0.17014343
67	0xbe24b418	-0.16084325
68	0x3dbf3dbf	0.09337949
69	0xbd077897	-0.033073988
70	0xbdaf1338	-0.085485876
71	0x3e95bd84	0.2924615
72	0xbe3a2e13	-0.18181638
73	0x3cfc14cc	0.030771635
74	0x3d569c3c	0.05239509
75	0xbdce8735	-0.100843824
76	0xbe24baa7	-0.16086827
77	0xbd3ec52b	-0.046574753
78	0x3e881472	0.265781
79	0xbd555c41	-0.052089933
80	0xbee19ce6	-0.44065017
81	0x3ea018fc	0.31269062
82	0xbdef0cec	-0.116723865
83	0x3ed644a1	0.41849235
84	0x3e4aabeb	0.19792144
85	0x3e6c7547	0.23091613
86	0xbd02d036	-0.031936847
87	0xbe08aa5e	-0.1334624
88	0xbe7515c6	-0.23934087
89	0x3df424b8	0.11921066
90	0xbe2e06b7	-0.16994749
91	0x3cc17736	0.023616415
92	0x3dc0780e	0.093978986
93	0xbe6fd24a	-0.23420063
94	0xbedc5660	-0.4303465
95	0x3e7a2b17	0.244305
96	0xbea68ba3	-0.3252841
97	0xbe20b1fe	-0.15692899
98	0x3f455163	0.7707731
99	0x3d43f20e	0.047838263
100	0xbd47f8d1	-0.048821274
101	0x3e831423	0.256013
102	0xbe65997f	-0.22421835
103	0x3ea1a466	0.3157074
104	0xbdaef673	-0.085431
105	0xbee874ec	-0.45401704
106	0xbe630dec	-0.2217328
107	0xbe7a83a3	-0.24464278
108	0x3e994ba5	0.29940525
109	0x3e7e2999	0.24820556
110	0x3e2d8dee	0.16948673
111	0x3d801687	0.06254297
112	0x3d8059e3	0.062671445
113	0x3e905fac	0.28197992
114	0xbe2c5a2e	-0.16831276
115	0xbc19cb4a	-0.009386847
116	0xbea238fa	-0.31684095
117	0x3f439bab	0.76409405
118	0xbdddcb19	-0.108297534
119	0x3da20465	0.079109944
120	0x3e8b4d2f	0.27207324
121	0x3e86d4a3	0.26334104
122	0x3b6c4539	0.0036052002
123	0x3ea03196	0.3128783
124	0x3db7e8f1	0.08979977
125	0x3e47cbb1	0.19511296
126	0x3e70257f	0.23451804
127	0x3e943303	0.2894517
128	0x3d8a3da6	0.0675004
129	0x3cef0842	0.029178742
130	0xbe99651e	-0.2995996
131	0x3d9bdf72	0.07610978
132	0x3e0089bf	0.12552546
133	0xbd0b8a92	-0.034067698
134	0x3e4729fd	0.19449611
135	0xbebf9beb	-0.37423643
136	0x3da538f2	0.08067502
137	0xbea185b7	-0.3154733
138	0xbe70bffe	-0.23510739
139	0xbe0156c9	-0.12630762
140	0xbc1a7bd6	-0.009428939
141	0xbf2e1762	-0.6800443
142	0xbe0f1fc1	-0.13976957
143	0xbd9f437f	-0.07776546
144	0x3da1112d	0.07864604
145	0x3e9c6c66	0.3055145
146	0xbeb976a4	-0.36223328
147	0x3e490160	0.19629431
148	0x3e7599f0	0.23984504
149	0x3ea6dea9	0.3259175
150	0xbe177bf1	-0.14793374
151	0x3ed05c9a	0.4069565
152	0xbe48f71a	-0.19625512
153	0x3e8409e2	0.2578879
154	0xbd0c470b	-0.03424744
155	0x3db4ad07	0.08822065
156	0x3e80f6f5	0.25188413
157	0xbe43bc12	-0.19114712
158	0x3dbb32a6	0.0914052
159	0x3e2eb960	0.17062902
160	0x3d1100a2	0.035400994
161	0xbd259a2a	-0.040430225
162	0xbda2b761	-0.07945133
163	0xbdbb244c	-0.091377825
164	0xbe942dd8	-0.28941226
165	0xbf027386	-0.50957525
166	0x3e8aa118	0.2707603
167	0x3dc65b36	0.09685366
168	0xbd815afe	-0.063161835
169	0xbe595883	-0.21225171
170	0x3e50a30c	0.20374697
171	0x3e3bb092	0.18329075
172	0x3e2521d9	0.16126193
173	0xbe2fced7	-0.17168747
174	0x3d085967	0.033288386
175	0x3cba0772	0.022708628
176	0xbe04c920	-0.12967348
177	0x3e5e370c	0.21700686
178	0x3dfaeaf6	0.122518465
179	0x3de137b6	0.10996954
180	0xbdc66474	-0.09687129
181	0x3e735d37	0.23766027
182	0x3ed131cc	0.40858305
183	0xbd0259f3	-0.031824064
184	0xbe29ab01	-0.16569139
185	0xbe06fb44	-0.13181788
186	0xbed562e1	-0.41677
187	0x3d13e7f5	0.036109883
188	0x3d22c302	0.039736755
189	0x3d6fe971	0.058572236
190	0x3df80c60	0.12111735
191	0xbe343948	-0.17599976
192	0xbe8e8440	-0.27835274
193	0xbdf3e0f6	-0.11908142
194	0x3e1cc7c9	0.15310587
195	0xbe673631	-0.22579266
196	0xbe30e8c2	-0.1727629
197	0x3e45fc4b	0.19334523
198	0xbeb01552	-0.34391266
199	0xbe51bc14	-0.20481902
200	0x3e52d470	0.20588851
201	0xbe73f202	-0.23822787
202	0xbd2b7133	-0.041856002
203	0x3e29a996	0.16568598
204	0xbe26743e	-0.1625528
205	0xbe3b0ba1	-0.18266155
206	0x3df5b075	0.11996547
207	0xbefccdab	-0.49375662
208	0xbea8ca8a	-0.32967025
209	0x3eeae57d	0.4587821
210	0xbe9db64a	-0.30803138
211	0x3e197db6	0.14989361
212	0x3ea05398	0.31313777
213	0x3f0f4a45	0.559727
214	0xbe597d2b	-0.21239154
215	0xbe193593	-0.14961843
216	0x3e87be0e	0.26512188
217	0xbe64986c	-0.2232377
218	0x3ce438db	0.027859142
219	0xbd8f39d3	-0.06993451
220	0xbe18c4f1	-0.14918877
221	0xbdf82a92	-0.12117495
222	0xbe61b496	-0.22041544
223	0xbe780df7	-0.24224077
224	0xbee9f8eb	-0.45697722
225	0xbd90eedc	-0.07076809
226	0xbe2019d3	-0.15634851
227	0xbe7d404e	-0.24731562
228	0x3e98c3f1	0.2983699
229	0xbe891dc0	-0.2678051
230	0xbde8599c	-0.11345217
231	0x3f3dcde2	0.7414228
232	0x3e625649	0.22103228
233	0xbda28805	-0.079361
234	0x3e91f165	0.28504482
235	0xbf04deaf	-0.5190229
236	0xbe9b2498	-0.30301356
237	0x3e542cd1	0.20720221
238	0xbd7e1277	-0.06202933
239	0x3ec9f5d6	0.3944537
240	0x3f181024	0.5939963
241	0xbcf9ee13	-0.03050903
242	0xbe93cebc	-0.28868663
243	0x3d2f225c	0.042757377
244	0xbec55037	-0.38537762
245	0x3e29d647	0.16585647
246	0x3d90d9ac	0.070727676
247	0xbcae4313	-0.021272218
248	0xbe903bde	-0.28170675
249	0x3ed4d987	0.4157221
250	0x3d6f67c5	0.05844857
251	0xbcf22b8e	-0.029561784
252	0x3d2f3b3a	0.042781092
253	0x3d376e71	0.04478306
254	0xbb43d1cf	-0.0029879694
255	0xbd51c5c6	-0.051214002

liner1.bias f4 [128]
0	0x3e6f95ad	0.2339694
1	0xbf2a2e1a	-0.66476595
2	0xbf44db55	-0.76897174
3	0x3edbb957	0.4291484
4	0xbf03e5c2	-0.5152246
5	0xbebaf163	-0.36512288
6	0x3e288269	0.16455998
7	0x3e2c5026	0.16827449
8	0xbf27ed64	-0.65596604
9	0x3e1ef8aa	0.15524545
10	0xbf84afb0	-1.0366116
11	0xbec0167c	-0.37517154
12	0xbe84a457	-0.2590663
13	0x3e253a7f	0.16135596
14	0xbeefa015	-0.4680182
15	0xbea5fade	-0.3241796
16	0x3e2a4368	0.16627276
17	0x3d621d29	0.05520359
18	0xbf6444ac	-0.89167285
19	0xbef56119	-0.47925642
20	0xbf81ac0a	-1.0130627
21	0x3eac2059	0.3361843
22	0xbf1f4091	-0.62207896
23	0xbf575a25	-0.84121925
24	0xbdd01a41	-0.101612575
25	0x3f8c0b89	1.094102
26	0x3f26af4e	0.65111244
27	0xbf4fe721	-0.8121205
28	0xbf02a72e	-0.51036346
29	0x3e2f6797	0.1712936
30	0xbeffe7a2	-0.4998141
31	0xbf205286	-0.6262592
32	0x3e4f6069	0.20251621
33	0x3e404adf	0.18778561
34	0x3e279d2c	0.1636855
35	0xbce4409a	-0.027862836
36	0xbf0893e2	-0.5335065
37	0x3e74cfd4	0.23907405
38	0xbf0ca8ea	-0.5494524
39	0x3e09ed89	0.13469519
40	0xbea8af3c	-0.32946193
41	0x3d3e5140	0.046464205
42	0xbed07e46	-0.4072134
43	0x3ee2c1e0	0.4428854
44	0x3f555518	0.8333297
45	0x3d8c6765	0.068556584
46	0xbd2d1b07	-0.042262103
47	0xbf09b277	-0.5378794
48	0xbd38faa6	-0.045160912
49	0xbefcc137	-0.4936616
50	0xbef52bcc	-0.47884977
51	0x3e93157e	0.28727335
52	0xbf04f1f4	-0.5193169
53	0xbf7c91a7	-0.9865975
54	0xbf0545f8	-0.5205989
55	0xbe909098	-0.28235316
56	0xbebb1a4b	-0.36543497
57	0xbf70495c	-0.9386194
58	0xbf3a9436	-0.728824
59	0x3e6dfff9	0.23242177
60	0x3e1099ea	0.14121214
61	0x3c3d7d3d	0.011565504
62	0xbec89d77	-0.39182636
63	0xbe9ec4a6	-0.31009406
64	0x3e44bdc9	0.19213022
65	0xbdc3c170	-0.0955838
66	0xbf13234e	-0.57475746
67	0xbf130297	-0.57425827
68	0xbeaefd5c	-0.34177673
69	0x3e665515	0.22493394
70	0x3cdf432f	0.027253715
71	0xbf6517eb	-0.8948962
72	0xbe9b3ab1	-0.30318215
73	0x3cd239fa	0.025662411
74	0x3ebf19c3	0.37324342
75	0xbf3fd77f	-0.74938196
76	0xbf1f23ed	-0.62164193
77	0xbf1245c7	-0.5713772
78	0xbe60c5fb	-0.21950524
79	0xbe9fd43e	-0.31216615
80	0xbe9e10f6	-0.30872315
81	0xbe20ea0a	-0.15714279
82	0xbf6b9170	-0.92018795
83	0x3e5b0414	0.21388274
84	0x3d8c2ac8	0.068440974
85	0xbf01bd6d	-0.50679666
86	0xbf4acb01	-0.7921601
87	0xbed3e2b4	-0.41383898
88	0xbed27a8a	-0.41109115
89	0x3f25361f	0.6453571
90	0x3e1820ad	0.14856215
91	0x3d8b6251	0.06805862
92	0x3c4f027e	0.0126348715
93	0xbf74e7a9	-0.95665985
94	0xbf2d5f1c	-0.6772325
95	0x3b530f0c	0.0032205014
96	0x3fc36660	1.5265617
97	0xbea03d81	-0.31296924
98	0x3df46b3e	0.11934517
99	0xbcd9026a	-0.026490409
100	0xbeeae4dc	-0.4587773
101	0x3d9acd39	0.07558674
102	0x3cbef6ff	0.023311136
103	0x3e09e887	0.13467608
104	0xbef69951	-0.48163846
105	0xbf3164a6	-0.692942
106	0xbf2caf40	-0.6745491
107	0xbef2c461	-0.4741545
108	0xbf57fe28	-0.84372187
109	0x3ccb6e68	0.02483292
110	0xbea2c0ff	-0.3178787
111	0x3e8e3245	0.27772728
112	0xbc8817f3	-0.016612982
113	0xbc70fe39	-0.014709049
114	0x3e1e171b	0.15438502
115	0xbf5898b1	-0.8460799
116	0x3e855b18	0.26046062
117	0x3e6fa176	0.23401436
118	0x3c459e16	0.012061616
119	0x3e3d83ef	0.1850736
120	0xbf30c15d	-0.6904505
121	0x3f63d386	0.88994634
122	0x3ea66379	0.32497767
123	0xbee9c039	-0.45654467
124	0x3f63b263	0.8894407
125	0x3e6c70aa	0.23089853
126	0xbf010599	-0.50399166
127	0x3cb94ade	0.022618707

liner2.weight f4 [1, 128]
0	0xbeeae4f4	-0.45877802
1	0x3f0231ed	0.5085743
2	0x3dc22a30	0.09480703
3	0xbf01230f	-0.5044412
4	0x3f513bd7	0.81731933
5	0x3f507c0d	0.81439286
6	0xbf4d08cf	-0.80091566
7	0xbf005e1e	-0.5014361
8	0x3f53426d	0.8252323
9	0xbef89bf8	-0.48556495
10	0x3eccb2a8	0.39980054
11	0x3f4c72f7	0.7986292
12	0xbed20ebb	-0.41026863
13	0xbf08b873	-0.5340645
14	0x3f6ddea5	0.92917854
15	0x3f180c5a	0.59393847
16	0xbf02f280	-0.51151276
17	0xbf011be4	-0.5043318
18	0x3ddda319	0.10822124
19	0x3e59ea5c	0.21280807
20	0x3e4c5b5d	0.19956727
21	0xbf19450c	-0.5987098
22	0x3eabce65	0.33555904
23	0x3e006212	0.12537411
24	0x3eab68ad	0.334783
25	0xbd423978	-0.047418088
26	0xbf045663	-0.51694316
27	0x3ea89670	0.32927275
28	0x3df14ffe	0.117828354
29	0xbf0a8dca	-0.541226
30	0x3d8c3d0f	0.068475835
31	0x3d494fee	0.049148493
32	0xbefc3079	-0.49255732
33	0xbed9b501	-0.42520908
34	0xbf0c7549	-0.5486646
35	0xbf0fa794	-0.5611508
36	0xbeccd2a4	-0.40004456
37	0xbf0d3d19	-0.5517135
38	0x3f61bed9	0.88181835
39	0xbf1fdee4	-0.6244948
40	0x3de50559	0.111826606
41	0xbefadc2d	-0.48996106
42	0x3f58ac69	0.8463808
43	0xbf01e627	-0.5074181
44	0xbd992bc3	-0.0747905
45	0xbcd76799	-0.026294516
46	0xbf040c76	-0.51581514
47	0x3f670fed	0.90258676
48	0xbf1d9c8e	-0.6156701
49	0x3edbe6c8	0.4294951
50	0x3f85483c	1.0412669
51	0xbeec97c1	-0.4620953
52	0x3d3adfe8	0.04562369
53	0x3e29cb41	0.16581441
54	0x3ec5a734	0.38604128
55	0x3efbf9c6	0.49214
56	0xbe8f8824	-0.28033555
57	0x3e4a4bd7	0.19755493
58	0x3f16f1b0	0.58962536
59	0xbf007c0d	-0.50189286
60	0xbef8c7ff	-0.48590085
61	0xbe6a27ca	-0.22866741
62	0x3f7de4c0	0.9917717
63	0x3f425917	0.7591719
64	0xbefd95dd	-0.495284
65	0xbedc0d91	-0.429791
66	0x3e0eb79e	0.13937232
67	0x3e80c289	0.2514842
68	0x3eb3456e	0.35013908
69	0xbf01843d	-0.50592405
70	0xbf11529d	-0.5676668
71	0x3e979e3a	0.29612905
72	0x3e5c43a8	0.21510184
73	0xbeb78506	-0.35843676
74	0xbd720627	-0.0590879
75	0x3e0a0c24	0.13481194
76	0x3d7939ff	0.060846325
77	0x3f533a9e	0.8251132
78	0x3f22bfc4	0.6357386
79	0x3e58a99d	0.21158452
80	0x3f1d4013	0.61425894
81	0xbe792aae	-0.24332687
82	0x3e9c19f9	0.30488566
83	0xbef4b6bf	-0.47795674
84	0xbef9a80c	-0.48761022
85	0x3f0f0c45	0.55878097
86	0x3e1875f2	0.14888743
87	0x3e212617	0.15737186
88	0x3e91626e	0.28395408
89	0xbe7e11ca	-0.24811473
90	0xbf326b8e	-0.69695365
91	0xbed951e1	-0.4244528
92	0xbe85d45f	-0.2613859
93	0x3eeccdad	0.46250668
94	0x3f045b04	0.5170138
95	0xbf3c3760	-0.73521996
96	0xbd76905f	-0.060196277
97	0xbd095741	-0.033530477
98	0xbf02f4ec	-0.5115497
99	0xbf13f3a4	-0.5779364
100	0x3f3cc9dc	0.7374551
101	0xbeb999a8	-0.36250043
102	0xbf1bd6a7	-0.6087441
103	0xbf151b59	-0.58244854
104	0x3f4418be	0.76600254
105	0x3dad1deb	0.08452972
106	0x3df66909	0.120317526
107	0x3e47c4ea	0.1950871
108	0x3e2ee978	0.17081249
109	0xbefe7f45	-0.49706474
110	0x3f87ae85	1.0600134
111	0xbf2ecc24	-0.68280244
112	0xbf0698e3	-0.52577037
113	0xbf1b1f95	-0.60595065
114	0xbf028b5c	-0.50993896
115	0x3e7676c4	0.24068743
116	0xbeeab86d	-0.4584383
117	0xbf095b44	-0.53654885
118	0xbec8901a	-0.3917244
119	0xbce5cf88	-0.02805306
120	0x3ea46dd2	0.32115036
121	0xbea14fd3	-0.31506214
122	0xbefd2952	-0.49445587
123	0x3e798354	0.24366504
124	0xbea47dd4	-0.3212725
125	0xbf5333a9	-0.825007
126	0x3f69805a	0.91211474
127	0xbf1f2a3b	-0.62173814

liner3.weight f4 [14, 128]
0	0xbc8c73cd	-0.017145062
1	0xbbeb74d8	-0.0071855597
2	0xbe2ca2da	-0.16858998
3	0x3b16c784	0.0023007104
4	0x3b5c25b1	0.0033591802
5	0xba6b41a1	-0.0008974318
6	0xb889cfa6	-6.5713466e-05
7	0xba410a30	-0.0007363884
8	0xb999ffdf	-0.00029373073
9	0xb9b1ad2d	-0.00033889097
10	0xbc900daa	-0.01758464
11	0x3c1ee05d	0.009697047
12	0xb807f3af	-3.2413456e-05
13	0xbc4f4992	-0.012651818
14	0x39c4b1c5	0.00037516482
15	0x3c9437ff	0.018093107
16	0xbae3dd3f	-0.0017384662
17	0x3c34c778	0.011033885
18	0xbe9e3a7f	-0.30904004
19	0x3cdd1292	0.026986394
20	0xbec18c0d	-0.37802163
21	0x3b1fbddb	0.0024374637
22	0x3da3582d	0.079758026
23	0x3cd4248f	0.025896339
24	0x3b02c6c8	0.0019954909
25	0x3c1f1419	0.0097093815
26	0x3b9f2ced	0.0048576505
27	0x3bf58b03	0.007493378
28	0x3e347dfa	0.17626181
29	0x3b09f61b	0.0021051231
30	0xbcd72c43	-0.026266223
31	0x3e460067	0.19336091
32	0xbb14b22d	-0.002268921
33	0xb91280db	-0.00013971647
34	0x3c3e8a94	0.011629719
35	0x3b32a022	0.002725609
36	0x3c348b12	0.011019485
37	0x3c25e952	0.010126429
38	0x3bd48050	0.0064850226
39	0xbaf156f8	-0.001841276
40	0x3cbed748	0.023296013
41	0xbca5da74	-0.020245768
42	0xbbc85fae	-0.0061149215
43	0x3aaa9e1f	0.0013017094
44	0x3baac19c	0.0052110683
45	0xbc1cd017	-0.009571097
46	0xbc5dff89	-0.013549694
47	0x3aaab3e9	0.0013023588
48	0x3b198e1d	0.0023430653
49	0xbc29b58b	-0.010358225
50	0xba4eb09f	-0.0007884595
51	0xbb7e05f7	-0.003876088
52	0xbea6925c	-0.32533538
53	0x3d1a1a1d	0.03762256
54	0xbc2b3e07	-0.0104518
55	0x393a9ed9	0.00017797518
56	0xbc417118	-0.011806749
57	0xbc7c6916	-0.015405914
58	0xbb496c05	-0.003073455
59	0x3c54205f	0.012947171
60	0xbcaed4f1	-0.021341773
61	0xbb6007a9	-0.0034184253
62	0x3a77f48d	0.0009458743
63	0xba93a5b9	-0.0011264599
64	0x3a80f5c0	0.0009838864
65	0xbb86352d	-0.0040956945
66	0xbc027873	-0.007963288
67	0x3ca07e90	0.0195916
68	0xbc0e2f02	-0.0086782
69	0xbacfff2c	-0.0015868894
70	0x3cbb2f50	0.022849709
71	0x3c53bb2b	0.012923042
72	0x3d7834a2	0.06059707
73	0xbb737926	-0.0037151068
74	0xbc366e9b	-0.011134769
75	0x3d009785	0.0313945
76	0xbe13682c	-0.14395207
77	0x3b9c5cee	0.0047718203
78	0x3a674e0f	0.00088235823
79	0xbb8d11a2	-0.0043050805
80	0xbaf18840	-0.0018427446
81	0x3c4b867b	0.012422199
82	0x3c518ed8	0.012790404
83	0x38b78e68	8.752645e-05
84	0x3a369125	0.0006964377
85	0x3b7de348	0.0038740207
86	0xbd92700b	-0.07150277
87	0x3de8f667	0.113751225
88	0x3e31b5a9	0.17354454
89	0xbc2fcf46	-0.01073057
90	0x3ac0864e	0.0014688463
91	0xbbf555ab	-0.007487019
92	0x3ba69a3e	0.005084305
93	0x3c6029c4	0.013681833
94	0x3bbfc415	0.005852232
95	0xbbade9ec	-0.0053074267
96	0x3cb04559	0.021517443
97	0xbcff91c7	-0.031197442
98	0x3b8f307b	0.004369793
99	0x3ad42756	0.001618604
100	0xbb9b765d	-0.0047443346
101	0x3c8d758b	0.017267963
102	0xbbce95d7	-0.0063044834
103	0xbc18d1c4	-0.009327356
104	0xba0ae221	-0.0005297978
105	0x3e634fd3	0.2219842
106	0xbe29685c	-0.16543716
107	0x3ebd06f0	0.36919355
108	0x3e37666b	0.17910163
109	0xbb212fc1	-0.0024595114
110	0xbb0e8dce	-0.0021752003
111	0xb7ebdd98	-2.811737e-05
112	0x3bd91548	0.0066248514
113	0x3bb47042	0.0055065462
114	0x3c31f675	0.010861983
115	0xbdf755d8	-0.1207692
116	0xbb07593e	-0.0020652558
117	0x3b3ff8f2	0.002929267
118	0xbb38d8d9	-0.0028205423
119	0xbc8596d8	-0.01630728
120	0x3d2fa9dd	0.042886604
121	0xbc4733e2	-0.012158366
122	0xbc8017e6	-0.015636396
123	0x3d91cb63	0.07118871
124	0x3c6140ae	0.013748331
125	0x3b609928	0.0034270976
126	0x3a8cafba	0.0010733523
127	0x3b0df3cd	0.002166021
128	0xbc591fa4	-0.013252173
129	0x3a3a5ea4	0.00071094395
130	0xbdd53368	-0.104101956
131	0x3ad52a7c	0.0016263272
132	0x3c5d56d0	0.013509467
133	0x3a1d7d70	0.00060077664
134	0x3b0865e6	0.002081269
135	0xba944ffc	-0.0011315341
136	0x3a0f2671	0.00054607453
137	0xba7241e6	-0.0009241387
138	0xbb047891	-0.0020213465
139	0x3c3337fc	0.010938641
140	0x3bb9c564	0.0056692827
141	0xbbb52af7	-0.0055288034
142	0x3a408505	0.000734404
143	0x3b8eaeb6	0.0043543233
144	0x3a6ef855	0.0009115984
145	0x3bd46c27	0.0064826193
146	0x3c3eaca7	0.011637843
147	0x3e76e30f	0.24110053
148	0xbe4da988	-0.20084202
149	0x3b1a5901	0.0023551586
150	0x3d38d015	0.045120317
151	0xbe4e9c7d	-0.20176883
152	0x3beffcb8	0.0073238276
153	0x3d0ed193	0.034867834
154	0xbac6860b	-0.0015146149
155	0x3b2ba5dd	0.0026191392
156	0x3d9c1eaa	0.07623036
157	0x3b26bed5	0.0025443335
158	0xbe2de4d0	-0.16981816
159	0x3dff3ced	0.124627925
160	0x3b955798	0.004557561
161	0xbb49f609	-0.0030816814
162	0x3d7b1ff4	0.06130977
163	0x3a181b81	0.0005802438
164	0xbc1f7086	-0.0097314175
165	0x3c32cd47	0.0109132
166	0x3b171545	0.002305345
167	0xbc6bab52	-0.014384108
168	0x3e770360	0.24122381
169	0xbcdd4c74	-0.027013995
170	0x3ba664cb	0.0050779334
171	0x3b01e015	0.0019817401
172	0xba87b595	-0.0010353798
173	0xbc0806c2	-0.008302392
174	0x3b7373b0	0.0037147813
175	0x3acc4ffb	0.0015587801
176	0x3c2004fe	0.009766815
177	0x3bbd3c09	0.005774979
178	0x3bcabf37	0.0061873454
179	0xbbf2fb6c	-0.0074152257
180	0xbcfe92cb	-0.031075856
181	0xbd14618a	-0.036225833
182	0xbc73999e	-0.014868168
183	0xba5c515e	-0.00084044586
184	0xbc7024cf	-0.014657213
185	0x398ad446	0.00026479567
186	0xbc614e46	-0.013751572
187	0x3c1e5d59	0.0096658105
188	0xbca6c1f4	-0.020356156
189	0xbda67988	-0.08128649
190	0x3b56ace6	0.0032756864
191	0xbb550017	-0.0032501274
192	0x3bd6eecf	0.00655923
193	0xbca1359a	-0.01967888
194	0xbeab7413	-0.33486995
195	0x3d6d394f	0.05791598
196	0xbc5aced2	-0.013354974
197	0xbae4d8b3	-0.0017459601
198	0x39abfe54	0.0003280515
199	0xbe7e25e0	-0.24819136
200	0x3e52868d	0.2055914
201	0xbbdbe56d	-0.0067106993
202	0xbcbbb65b	-0.022914102
203	0xbe338625	-0.17531641
204	0x3ea90972	0.3301502
205	0xbb179797	-0.0023131126
206	0xbaaf909a	-0.0013394535
207	0xbcb14c02	-0.021642689
208	0xb7809cc6	-1.5331792e-05
209	0x3cc4c863	0.024021333
210	0xb9afc677	-0.0003352647
211	0xb9ce1116	-0.00039304112
212	0x3b04d8db	0.0020270857
213	0x3b26a694	0.0025428878
214	0xbd0afed6	-0.033934437
215	0x3c05efa7	0.008174813
216	0x3e43d5ec	0.19124573
217	0x3c3d25ed	0.011544687
218	0xb9090448	-0.00013066933
219	0x3ca58379	0.020204293
220	0x3c8e28fe	0.017353531
221	0x3d1b17da	0.037864543
222	0x3b43e67b	0.0029892016
223	0xbc140302	-0.00903392
224	0xba9f542d	-0.0012155824
225	0x3af4d21c	0.001867834
226	0x3a74a25a	0.00093320536
227	0x3bb53018	0.005529415
228	0xbb024482	-0.001987726
229	0xbab16c23	-0.0013536256
230	0x3c3346db	0.010942186
231	0x3cb03276	0.021508437
232	0x39043034	0.00012606458
233	0x3e259897	0.1617149
234	0xbda85565	-0.08219413
235	0x3d0125ba	0.03153012
236	0xbdf781f0	-0.120853305
237	0xbb403462	-0.0029328098
238	0x3aa02fcd	0.0012221277
239	0x3a9817c0	0.0011603758
240	0xbaaf298f	-0.0013363826
241	0x3c213287	0.009838707
242	0x3c22706a	0.009914497
243	0xbccd3389	-0.025048988
244	0xbb78e274	-0.0037976773
245	0x3b3486e3	0.002754622
246	0xbc1416e5	-0.009038662
247	0xbc245daa	-0.010032097
248	0xbdd63f28	-0.10461265
249	0x3aa33827	0.0012452648
250	0xbd41c08e	-0.047302775
251	0x3e1cf51f	0.15327881
252	0xb91fd2fa	-0.00015242017
253	0x3b36a028	0.0027866457
254	0x3b0f9559	0.0021909086
255	0xbba996d4	-0.005175451

liner3.bias f4 [14]
0	0x3dca5f80	0.098814964
1	0xbd0d3468	-0.034473807
2	0xbe2375b3	-0.15962867
3	0xbc4976c9	-0.012296387
4	0x3ea9b9bd	0.3314952
5	0x3eab1fff	0.3342285
6	0x3f118047	0.5683636
7	0x3ea6a9d7	0.32551453
8	0x3edca5e4	0.43095315
9	0x3ef62cf2	0.48081166
10	0x3eb4960f	0.35270736
11	0x3f1bf880	0.60926056
12	0x3f0f3e74	0.5595467
13	0x3f1b11f4	0.6057427
